node {
  name: "input_3d"
  op: "Placeholder"
  attr {
    key: "dtype"
    value {
      type: DT_FLOAT
    }
  }
  attr {
    key: "shape"
    value {
      shape {
        dim {
          size: -1
        }
        dim {
          size: 80
        }
        dim {
          size: 13
        }
      }
    }
  }
}
node {
  name: "keep_prob"
  op: "Placeholder"
  attr {
    key: "dtype"
    value {
      type: DT_FLOAT
    }
  }
  attr {
    key: "shape"
    value {
      shape {
        unknown_rank: true
      }
    }
  }
}
node {
  name: "ExpandDims/dim"
  op: "Const"
  attr {
    key: "dtype"
    value {
      type: DT_INT32
    }
  }
  attr {
    key: "value"
    value {
      tensor {
        dtype: DT_INT32
        tensor_shape {
        }
        int_val: -1
      }
    }
  }
}
node {
  name: "ExpandDims"
  op: "ExpandDims"
  input: "input_3d"
  input: "ExpandDims/dim"
  attr {
    key: "T"
    value {
      type: DT_FLOAT
    }
  }
  attr {
    key: "Tdim"
    value {
      type: DT_INT32
    }
  }
}
node {
  name: "truncated_normal/shape"
  op: "Const"
  attr {
    key: "dtype"
    value {
      type: DT_INT32
    }
  }
  attr {
    key: "value"
    value {
      tensor {
        dtype: DT_INT32
        tensor_shape {
          dim {
            size: 4
          }
        }
        tensor_content: "\n\000\000\000\032\000\000\000\001\000\000\000\020\000\000\000"
      }
    }
  }
}
node {
  name: "truncated_normal/mean"
  op: "Const"
  attr {
    key: "dtype"
    value {
      type: DT_FLOAT
    }
  }
  attr {
    key: "value"
    value {
      tensor {
        dtype: DT_FLOAT
        tensor_shape {
        }
        float_val: 0.0
      }
    }
  }
}
node {
  name: "truncated_normal/stddev"
  op: "Const"
  attr {
    key: "dtype"
    value {
      type: DT_FLOAT
    }
  }
  attr {
    key: "value"
    value {
      tensor {
        dtype: DT_FLOAT
        tensor_shape {
        }
        float_val: 0.009999999776482582
      }
    }
  }
}
node {
  name: "truncated_normal/TruncatedNormal"
  op: "TruncatedNormal"
  input: "truncated_normal/shape"
  attr {
    key: "T"
    value {
      type: DT_INT32
    }
  }
  attr {
    key: "dtype"
    value {
      type: DT_FLOAT
    }
  }
  attr {
    key: "seed"
    value {
      i: 0
    }
  }
  attr {
    key: "seed2"
    value {
      i: 0
    }
  }
}
node {
  name: "truncated_normal/mul"
  op: "Mul"
  input: "truncated_normal/TruncatedNormal"
  input: "truncated_normal/stddev"
  attr {
    key: "T"
    value {
      type: DT_FLOAT
    }
  }
}
node {
  name: "truncated_normal"
  op: "Add"
  input: "truncated_normal/mul"
  input: "truncated_normal/mean"
  attr {
    key: "T"
    value {
      type: DT_FLOAT
    }
  }
}
node {
  name: "Variable"
  op: "VariableV2"
  attr {
    key: "container"
    value {
      s: ""
    }
  }
  attr {
    key: "dtype"
    value {
      type: DT_FLOAT
    }
  }
  attr {
    key: "shape"
    value {
      shape {
        dim {
          size: 10
        }
        dim {
          size: 26
        }
        dim {
          size: 1
        }
        dim {
          size: 16
        }
      }
    }
  }
  attr {
    key: "shared_name"
    value {
      s: ""
    }
  }
}
node {
  name: "Variable/Assign"
  op: "Assign"
  input: "Variable"
  input: "truncated_normal"
  attr {
    key: "T"
    value {
      type: DT_FLOAT
    }
  }
  attr {
    key: "_class"
    value {
      list {
        s: "loc:@Variable"
      }
    }
  }
  attr {
    key: "use_locking"
    value {
      b: true
    }
  }
  attr {
    key: "validate_shape"
    value {
      b: true
    }
  }
}
node {
  name: "Variable/read"
  op: "Identity"
  input: "Variable"
  attr {
    key: "T"
    value {
      type: DT_FLOAT
    }
  }
  attr {
    key: "_class"
    value {
      list {
        s: "loc:@Variable"
      }
    }
  }
}
node {
  name: "zeros/shape_as_tensor"
  op: "Const"
  attr {
    key: "dtype"
    value {
      type: DT_INT32
    }
  }
  attr {
    key: "value"
    value {
      tensor {
        dtype: DT_INT32
        tensor_shape {
          dim {
            size: 1
          }
        }
        int_val: 16
      }
    }
  }
}
node {
  name: "zeros/Const"
  op: "Const"
  attr {
    key: "dtype"
    value {
      type: DT_FLOAT
    }
  }
  attr {
    key: "value"
    value {
      tensor {
        dtype: DT_FLOAT
        tensor_shape {
        }
        float_val: 0.0
      }
    }
  }
}
node {
  name: "zeros"
  op: "Fill"
  input: "zeros/shape_as_tensor"
  input: "zeros/Const"
  attr {
    key: "T"
    value {
      type: DT_FLOAT
    }
  }
  attr {
    key: "index_type"
    value {
      type: DT_INT32
    }
  }
}
node {
  name: "Variable_1"
  op: "VariableV2"
  attr {
    key: "container"
    value {
      s: ""
    }
  }
  attr {
    key: "dtype"
    value {
      type: DT_FLOAT
    }
  }
  attr {
    key: "shape"
    value {
      shape {
        dim {
          size: 16
        }
      }
    }
  }
  attr {
    key: "shared_name"
    value {
      s: ""
    }
  }
}
node {
  name: "Variable_1/Assign"
  op: "Assign"
  input: "Variable_1"
  input: "zeros"
  attr {
    key: "T"
    value {
      type: DT_FLOAT
    }
  }
  attr {
    key: "_class"
    value {
      list {
        s: "loc:@Variable_1"
      }
    }
  }
  attr {
    key: "use_locking"
    value {
      b: true
    }
  }
  attr {
    key: "validate_shape"
    value {
      b: true
    }
  }
}
node {
  name: "Variable_1/read"
  op: "Identity"
  input: "Variable_1"
  attr {
    key: "T"
    value {
      type: DT_FLOAT
    }
  }
  attr {
    key: "_class"
    value {
      list {
        s: "loc:@Variable_1"
      }
    }
  }
}
node {
  name: "Conv2D"
  op: "Conv2D"
  input: "ExpandDims"
  input: "Variable/read"
  attr {
    key: "T"
    value {
      type: DT_FLOAT
    }
  }
  attr {
    key: "data_format"
    value {
      s: "NHWC"
    }
  }
  attr {
    key: "dilations"
    value {
      list {
        i: 1
        i: 1
        i: 1
        i: 1
      }
    }
  }
  attr {
    key: "padding"
    value {
      s: "SAME"
    }
  }
  attr {
    key: "strides"
    value {
      list {
        i: 1
        i: 1
        i: 1
        i: 1
      }
    }
  }
  attr {
    key: "use_cudnn_on_gpu"
    value {
      b: true
    }
  }
}
node {
  name: "add"
  op: "Add"
  input: "Conv2D"
  input: "Variable_1/read"
  attr {
    key: "T"
    value {
      type: DT_FLOAT
    }
  }
}
node {
  name: "Relu"
  op: "Relu"
  input: "add"
  attr {
    key: "T"
    value {
      type: DT_FLOAT
    }
  }
}
node {
  name: "MaxPool"
  op: "MaxPool"
  input: "Relu"
  attr {
    key: "T"
    value {
      type: DT_FLOAT
    }
  }
  attr {
    key: "data_format"
    value {
      s: "NHWC"
    }
  }
  attr {
    key: "ksize"
    value {
      list {
        i: 1
        i: 2
        i: 2
        i: 1
      }
    }
  }
  attr {
    key: "padding"
    value {
      s: "SAME"
    }
  }
  attr {
    key: "strides"
    value {
      list {
        i: 1
        i: 2
        i: 2
        i: 1
      }
    }
  }
}
node {
  name: "truncated_normal_1/shape"
  op: "Const"
  attr {
    key: "dtype"
    value {
      type: DT_INT32
    }
  }
  attr {
    key: "value"
    value {
      tensor {
        dtype: DT_INT32
        tensor_shape {
          dim {
            size: 4
          }
        }
        tensor_content: "\005\000\000\000\r\000\000\000\020\000\000\000\020\000\000\000"
      }
    }
  }
}
node {
  name: "truncated_normal_1/mean"
  op: "Const"
  attr {
    key: "dtype"
    value {
      type: DT_FLOAT
    }
  }
  attr {
    key: "value"
    value {
      tensor {
        dtype: DT_FLOAT
        tensor_shape {
        }
        float_val: 0.0
      }
    }
  }
}
node {
  name: "truncated_normal_1/stddev"
  op: "Const"
  attr {
    key: "dtype"
    value {
      type: DT_FLOAT
    }
  }
  attr {
    key: "value"
    value {
      tensor {
        dtype: DT_FLOAT
        tensor_shape {
        }
        float_val: 0.009999999776482582
      }
    }
  }
}
node {
  name: "truncated_normal_1/TruncatedNormal"
  op: "TruncatedNormal"
  input: "truncated_normal_1/shape"
  attr {
    key: "T"
    value {
      type: DT_INT32
    }
  }
  attr {
    key: "dtype"
    value {
      type: DT_FLOAT
    }
  }
  attr {
    key: "seed"
    value {
      i: 0
    }
  }
  attr {
    key: "seed2"
    value {
      i: 0
    }
  }
}
node {
  name: "truncated_normal_1/mul"
  op: "Mul"
  input: "truncated_normal_1/TruncatedNormal"
  input: "truncated_normal_1/stddev"
  attr {
    key: "T"
    value {
      type: DT_FLOAT
    }
  }
}
node {
  name: "truncated_normal_1"
  op: "Add"
  input: "truncated_normal_1/mul"
  input: "truncated_normal_1/mean"
  attr {
    key: "T"
    value {
      type: DT_FLOAT
    }
  }
}
node {
  name: "Variable_2"
  op: "VariableV2"
  attr {
    key: "container"
    value {
      s: ""
    }
  }
  attr {
    key: "dtype"
    value {
      type: DT_FLOAT
    }
  }
  attr {
    key: "shape"
    value {
      shape {
        dim {
          size: 5
        }
        dim {
          size: 13
        }
        dim {
          size: 16
        }
        dim {
          size: 16
        }
      }
    }
  }
  attr {
    key: "shared_name"
    value {
      s: ""
    }
  }
}
node {
  name: "Variable_2/Assign"
  op: "Assign"
  input: "Variable_2"
  input: "truncated_normal_1"
  attr {
    key: "T"
    value {
      type: DT_FLOAT
    }
  }
  attr {
    key: "_class"
    value {
      list {
        s: "loc:@Variable_2"
      }
    }
  }
  attr {
    key: "use_locking"
    value {
      b: true
    }
  }
  attr {
    key: "validate_shape"
    value {
      b: true
    }
  }
}
node {
  name: "Variable_2/read"
  op: "Identity"
  input: "Variable_2"
  attr {
    key: "T"
    value {
      type: DT_FLOAT
    }
  }
  attr {
    key: "_class"
    value {
      list {
        s: "loc:@Variable_2"
      }
    }
  }
}
node {
  name: "zeros_1/shape_as_tensor"
  op: "Const"
  attr {
    key: "dtype"
    value {
      type: DT_INT32
    }
  }
  attr {
    key: "value"
    value {
      tensor {
        dtype: DT_INT32
        tensor_shape {
          dim {
            size: 1
          }
        }
        int_val: 16
      }
    }
  }
}
node {
  name: "zeros_1/Const"
  op: "Const"
  attr {
    key: "dtype"
    value {
      type: DT_FLOAT
    }
  }
  attr {
    key: "value"
    value {
      tensor {
        dtype: DT_FLOAT
        tensor_shape {
        }
        float_val: 0.0
      }
    }
  }
}
node {
  name: "zeros_1"
  op: "Fill"
  input: "zeros_1/shape_as_tensor"
  input: "zeros_1/Const"
  attr {
    key: "T"
    value {
      type: DT_FLOAT
    }
  }
  attr {
    key: "index_type"
    value {
      type: DT_INT32
    }
  }
}
node {
  name: "Variable_3"
  op: "VariableV2"
  attr {
    key: "container"
    value {
      s: ""
    }
  }
  attr {
    key: "dtype"
    value {
      type: DT_FLOAT
    }
  }
  attr {
    key: "shape"
    value {
      shape {
        dim {
          size: 16
        }
      }
    }
  }
  attr {
    key: "shared_name"
    value {
      s: ""
    }
  }
}
node {
  name: "Variable_3/Assign"
  op: "Assign"
  input: "Variable_3"
  input: "zeros_1"
  attr {
    key: "T"
    value {
      type: DT_FLOAT
    }
  }
  attr {
    key: "_class"
    value {
      list {
        s: "loc:@Variable_3"
      }
    }
  }
  attr {
    key: "use_locking"
    value {
      b: true
    }
  }
  attr {
    key: "validate_shape"
    value {
      b: true
    }
  }
}
node {
  name: "Variable_3/read"
  op: "Identity"
  input: "Variable_3"
  attr {
    key: "T"
    value {
      type: DT_FLOAT
    }
  }
  attr {
    key: "_class"
    value {
      list {
        s: "loc:@Variable_3"
      }
    }
  }
}
node {
  name: "Conv2D_1"
  op: "Conv2D"
  input: "MaxPool"
  input: "Variable_2/read"
  attr {
    key: "T"
    value {
      type: DT_FLOAT
    }
  }
  attr {
    key: "data_format"
    value {
      s: "NHWC"
    }
  }
  attr {
    key: "dilations"
    value {
      list {
        i: 1
        i: 1
        i: 1
        i: 1
      }
    }
  }
  attr {
    key: "padding"
    value {
      s: "SAME"
    }
  }
  attr {
    key: "strides"
    value {
      list {
        i: 1
        i: 1
        i: 1
        i: 1
      }
    }
  }
  attr {
    key: "use_cudnn_on_gpu"
    value {
      b: true
    }
  }
}
node {
  name: "add_1"
  op: "Add"
  input: "Conv2D_1"
  input: "Variable_3/read"
  attr {
    key: "T"
    value {
      type: DT_FLOAT
    }
  }
}
node {
  name: "Relu_1"
  op: "Relu"
  input: "add_1"
  attr {
    key: "T"
    value {
      type: DT_FLOAT
    }
  }
}
node {
  name: "dropout/Shape"
  op: "Shape"
  input: "Relu_1"
  attr {
    key: "T"
    value {
      type: DT_FLOAT
    }
  }
  attr {
    key: "out_type"
    value {
      type: DT_INT32
    }
  }
}
node {
  name: "dropout/random_uniform/min"
  op: "Const"
  attr {
    key: "dtype"
    value {
      type: DT_FLOAT
    }
  }
  attr {
    key: "value"
    value {
      tensor {
        dtype: DT_FLOAT
        tensor_shape {
        }
        float_val: 0.0
      }
    }
  }
}
node {
  name: "dropout/random_uniform/max"
  op: "Const"
  attr {
    key: "dtype"
    value {
      type: DT_FLOAT
    }
  }
  attr {
    key: "value"
    value {
      tensor {
        dtype: DT_FLOAT
        tensor_shape {
        }
        float_val: 1.0
      }
    }
  }
}
node {
  name: "dropout/random_uniform/RandomUniform"
  op: "RandomUniform"
  input: "dropout/Shape"
  attr {
    key: "T"
    value {
      type: DT_INT32
    }
  }
  attr {
    key: "dtype"
    value {
      type: DT_FLOAT
    }
  }
  attr {
    key: "seed"
    value {
      i: 0
    }
  }
  attr {
    key: "seed2"
    value {
      i: 0
    }
  }
}
node {
  name: "dropout/random_uniform/sub"
  op: "Sub"
  input: "dropout/random_uniform/max"
  input: "dropout/random_uniform/min"
  attr {
    key: "T"
    value {
      type: DT_FLOAT
    }
  }
}
node {
  name: "dropout/random_uniform/mul"
  op: "Mul"
  input: "dropout/random_uniform/RandomUniform"
  input: "dropout/random_uniform/sub"
  attr {
    key: "T"
    value {
      type: DT_FLOAT
    }
  }
}
node {
  name: "dropout/random_uniform"
  op: "Add"
  input: "dropout/random_uniform/mul"
  input: "dropout/random_uniform/min"
  attr {
    key: "T"
    value {
      type: DT_FLOAT
    }
  }
}
node {
  name: "dropout/add"
  op: "Add"
  input: "keep_prob"
  input: "dropout/random_uniform"
  attr {
    key: "T"
    value {
      type: DT_FLOAT
    }
  }
}
node {
  name: "dropout/Floor"
  op: "Floor"
  input: "dropout/add"
  attr {
    key: "T"
    value {
      type: DT_FLOAT
    }
  }
}
node {
  name: "dropout/div"
  op: "RealDiv"
  input: "Relu_1"
  input: "keep_prob"
  attr {
    key: "T"
    value {
      type: DT_FLOAT
    }
  }
}
node {
  name: "dropout/mul"
  op: "Mul"
  input: "dropout/div"
  input: "dropout/Floor"
  attr {
    key: "T"
    value {
      type: DT_FLOAT
    }
  }
}
node {
  name: "MaxPool_1"
  op: "MaxPool"
  input: "dropout/mul"
  attr {
    key: "T"
    value {
      type: DT_FLOAT
    }
  }
  attr {
    key: "data_format"
    value {
      s: "NHWC"
    }
  }
  attr {
    key: "ksize"
    value {
      list {
        i: 1
        i: 2
        i: 2
        i: 1
      }
    }
  }
  attr {
    key: "padding"
    value {
      s: "SAME"
    }
  }
  attr {
    key: "strides"
    value {
      list {
        i: 1
        i: 2
        i: 2
        i: 1
      }
    }
  }
}
node {
  name: "truncated_normal_2/shape"
  op: "Const"
  attr {
    key: "dtype"
    value {
      type: DT_INT32
    }
  }
  attr {
    key: "value"
    value {
      tensor {
        dtype: DT_INT32
        tensor_shape {
          dim {
            size: 4
          }
        }
        tensor_content: "\005\000\000\000\005\000\000\000\020\000\000\000 \000\000\000"
      }
    }
  }
}
node {
  name: "truncated_normal_2/mean"
  op: "Const"
  attr {
    key: "dtype"
    value {
      type: DT_FLOAT
    }
  }
  attr {
    key: "value"
    value {
      tensor {
        dtype: DT_FLOAT
        tensor_shape {
        }
        float_val: 0.0
      }
    }
  }
}
node {
  name: "truncated_normal_2/stddev"
  op: "Const"
  attr {
    key: "dtype"
    value {
      type: DT_FLOAT
    }
  }
  attr {
    key: "value"
    value {
      tensor {
        dtype: DT_FLOAT
        tensor_shape {
        }
        float_val: 0.009999999776482582
      }
    }
  }
}
node {
  name: "truncated_normal_2/TruncatedNormal"
  op: "TruncatedNormal"
  input: "truncated_normal_2/shape"
  attr {
    key: "T"
    value {
      type: DT_INT32
    }
  }
  attr {
    key: "dtype"
    value {
      type: DT_FLOAT
    }
  }
  attr {
    key: "seed"
    value {
      i: 0
    }
  }
  attr {
    key: "seed2"
    value {
      i: 0
    }
  }
}
node {
  name: "truncated_normal_2/mul"
  op: "Mul"
  input: "truncated_normal_2/TruncatedNormal"
  input: "truncated_normal_2/stddev"
  attr {
    key: "T"
    value {
      type: DT_FLOAT
    }
  }
}
node {
  name: "truncated_normal_2"
  op: "Add"
  input: "truncated_normal_2/mul"
  input: "truncated_normal_2/mean"
  attr {
    key: "T"
    value {
      type: DT_FLOAT
    }
  }
}
node {
  name: "Variable_4"
  op: "VariableV2"
  attr {
    key: "container"
    value {
      s: ""
    }
  }
  attr {
    key: "dtype"
    value {
      type: DT_FLOAT
    }
  }
  attr {
    key: "shape"
    value {
      shape {
        dim {
          size: 5
        }
        dim {
          size: 5
        }
        dim {
          size: 16
        }
        dim {
          size: 32
        }
      }
    }
  }
  attr {
    key: "shared_name"
    value {
      s: ""
    }
  }
}
node {
  name: "Variable_4/Assign"
  op: "Assign"
  input: "Variable_4"
  input: "truncated_normal_2"
  attr {
    key: "T"
    value {
      type: DT_FLOAT
    }
  }
  attr {
    key: "_class"
    value {
      list {
        s: "loc:@Variable_4"
      }
    }
  }
  attr {
    key: "use_locking"
    value {
      b: true
    }
  }
  attr {
    key: "validate_shape"
    value {
      b: true
    }
  }
}
node {
  name: "Variable_4/read"
  op: "Identity"
  input: "Variable_4"
  attr {
    key: "T"
    value {
      type: DT_FLOAT
    }
  }
  attr {
    key: "_class"
    value {
      list {
        s: "loc:@Variable_4"
      }
    }
  }
}
node {
  name: "zeros_2/shape_as_tensor"
  op: "Const"
  attr {
    key: "dtype"
    value {
      type: DT_INT32
    }
  }
  attr {
    key: "value"
    value {
      tensor {
        dtype: DT_INT32
        tensor_shape {
          dim {
            size: 1
          }
        }
        int_val: 32
      }
    }
  }
}
node {
  name: "zeros_2/Const"
  op: "Const"
  attr {
    key: "dtype"
    value {
      type: DT_FLOAT
    }
  }
  attr {
    key: "value"
    value {
      tensor {
        dtype: DT_FLOAT
        tensor_shape {
        }
        float_val: 0.0
      }
    }
  }
}
node {
  name: "zeros_2"
  op: "Fill"
  input: "zeros_2/shape_as_tensor"
  input: "zeros_2/Const"
  attr {
    key: "T"
    value {
      type: DT_FLOAT
    }
  }
  attr {
    key: "index_type"
    value {
      type: DT_INT32
    }
  }
}
node {
  name: "Variable_5"
  op: "VariableV2"
  attr {
    key: "container"
    value {
      s: ""
    }
  }
  attr {
    key: "dtype"
    value {
      type: DT_FLOAT
    }
  }
  attr {
    key: "shape"
    value {
      shape {
        dim {
          size: 32
        }
      }
    }
  }
  attr {
    key: "shared_name"
    value {
      s: ""
    }
  }
}
node {
  name: "Variable_5/Assign"
  op: "Assign"
  input: "Variable_5"
  input: "zeros_2"
  attr {
    key: "T"
    value {
      type: DT_FLOAT
    }
  }
  attr {
    key: "_class"
    value {
      list {
        s: "loc:@Variable_5"
      }
    }
  }
  attr {
    key: "use_locking"
    value {
      b: true
    }
  }
  attr {
    key: "validate_shape"
    value {
      b: true
    }
  }
}
node {
  name: "Variable_5/read"
  op: "Identity"
  input: "Variable_5"
  attr {
    key: "T"
    value {
      type: DT_FLOAT
    }
  }
  attr {
    key: "_class"
    value {
      list {
        s: "loc:@Variable_5"
      }
    }
  }
}
node {
  name: "Conv2D_2"
  op: "Conv2D"
  input: "MaxPool_1"
  input: "Variable_4/read"
  attr {
    key: "T"
    value {
      type: DT_FLOAT
    }
  }
  attr {
    key: "data_format"
    value {
      s: "NHWC"
    }
  }
  attr {
    key: "dilations"
    value {
      list {
        i: 1
        i: 1
        i: 1
        i: 1
      }
    }
  }
  attr {
    key: "padding"
    value {
      s: "SAME"
    }
  }
  attr {
    key: "strides"
    value {
      list {
        i: 1
        i: 1
        i: 1
        i: 1
      }
    }
  }
  attr {
    key: "use_cudnn_on_gpu"
    value {
      b: true
    }
  }
}
node {
  name: "add_2"
  op: "Add"
  input: "Conv2D_2"
  input: "Variable_5/read"
  attr {
    key: "T"
    value {
      type: DT_FLOAT
    }
  }
}
node {
  name: "Relu_2"
  op: "Relu"
  input: "add_2"
  attr {
    key: "T"
    value {
      type: DT_FLOAT
    }
  }
}
node {
  name: "truncated_normal_3/shape"
  op: "Const"
  attr {
    key: "dtype"
    value {
      type: DT_INT32
    }
  }
  attr {
    key: "value"
    value {
      tensor {
        dtype: DT_INT32
        tensor_shape {
          dim {
            size: 4
          }
        }
        tensor_content: "\003\000\000\000\003\000\000\000 \000\000\000 \000\000\000"
      }
    }
  }
}
node {
  name: "truncated_normal_3/mean"
  op: "Const"
  attr {
    key: "dtype"
    value {
      type: DT_FLOAT
    }
  }
  attr {
    key: "value"
    value {
      tensor {
        dtype: DT_FLOAT
        tensor_shape {
        }
        float_val: 0.0
      }
    }
  }
}
node {
  name: "truncated_normal_3/stddev"
  op: "Const"
  attr {
    key: "dtype"
    value {
      type: DT_FLOAT
    }
  }
  attr {
    key: "value"
    value {
      tensor {
        dtype: DT_FLOAT
        tensor_shape {
        }
        float_val: 0.009999999776482582
      }
    }
  }
}
node {
  name: "truncated_normal_3/TruncatedNormal"
  op: "TruncatedNormal"
  input: "truncated_normal_3/shape"
  attr {
    key: "T"
    value {
      type: DT_INT32
    }
  }
  attr {
    key: "dtype"
    value {
      type: DT_FLOAT
    }
  }
  attr {
    key: "seed"
    value {
      i: 0
    }
  }
  attr {
    key: "seed2"
    value {
      i: 0
    }
  }
}
node {
  name: "truncated_normal_3/mul"
  op: "Mul"
  input: "truncated_normal_3/TruncatedNormal"
  input: "truncated_normal_3/stddev"
  attr {
    key: "T"
    value {
      type: DT_FLOAT
    }
  }
}
node {
  name: "truncated_normal_3"
  op: "Add"
  input: "truncated_normal_3/mul"
  input: "truncated_normal_3/mean"
  attr {
    key: "T"
    value {
      type: DT_FLOAT
    }
  }
}
node {
  name: "Variable_6"
  op: "VariableV2"
  attr {
    key: "container"
    value {
      s: ""
    }
  }
  attr {
    key: "dtype"
    value {
      type: DT_FLOAT
    }
  }
  attr {
    key: "shape"
    value {
      shape {
        dim {
          size: 3
        }
        dim {
          size: 3
        }
        dim {
          size: 32
        }
        dim {
          size: 32
        }
      }
    }
  }
  attr {
    key: "shared_name"
    value {
      s: ""
    }
  }
}
node {
  name: "Variable_6/Assign"
  op: "Assign"
  input: "Variable_6"
  input: "truncated_normal_3"
  attr {
    key: "T"
    value {
      type: DT_FLOAT
    }
  }
  attr {
    key: "_class"
    value {
      list {
        s: "loc:@Variable_6"
      }
    }
  }
  attr {
    key: "use_locking"
    value {
      b: true
    }
  }
  attr {
    key: "validate_shape"
    value {
      b: true
    }
  }
}
node {
  name: "Variable_6/read"
  op: "Identity"
  input: "Variable_6"
  attr {
    key: "T"
    value {
      type: DT_FLOAT
    }
  }
  attr {
    key: "_class"
    value {
      list {
        s: "loc:@Variable_6"
      }
    }
  }
}
node {
  name: "zeros_3/shape_as_tensor"
  op: "Const"
  attr {
    key: "dtype"
    value {
      type: DT_INT32
    }
  }
  attr {
    key: "value"
    value {
      tensor {
        dtype: DT_INT32
        tensor_shape {
          dim {
            size: 1
          }
        }
        int_val: 32
      }
    }
  }
}
node {
  name: "zeros_3/Const"
  op: "Const"
  attr {
    key: "dtype"
    value {
      type: DT_FLOAT
    }
  }
  attr {
    key: "value"
    value {
      tensor {
        dtype: DT_FLOAT
        tensor_shape {
        }
        float_val: 0.0
      }
    }
  }
}
node {
  name: "zeros_3"
  op: "Fill"
  input: "zeros_3/shape_as_tensor"
  input: "zeros_3/Const"
  attr {
    key: "T"
    value {
      type: DT_FLOAT
    }
  }
  attr {
    key: "index_type"
    value {
      type: DT_INT32
    }
  }
}
node {
  name: "Variable_7"
  op: "VariableV2"
  attr {
    key: "container"
    value {
      s: ""
    }
  }
  attr {
    key: "dtype"
    value {
      type: DT_FLOAT
    }
  }
  attr {
    key: "shape"
    value {
      shape {
        dim {
          size: 32
        }
      }
    }
  }
  attr {
    key: "shared_name"
    value {
      s: ""
    }
  }
}
node {
  name: "Variable_7/Assign"
  op: "Assign"
  input: "Variable_7"
  input: "zeros_3"
  attr {
    key: "T"
    value {
      type: DT_FLOAT
    }
  }
  attr {
    key: "_class"
    value {
      list {
        s: "loc:@Variable_7"
      }
    }
  }
  attr {
    key: "use_locking"
    value {
      b: true
    }
  }
  attr {
    key: "validate_shape"
    value {
      b: true
    }
  }
}
node {
  name: "Variable_7/read"
  op: "Identity"
  input: "Variable_7"
  attr {
    key: "T"
    value {
      type: DT_FLOAT
    }
  }
  attr {
    key: "_class"
    value {
      list {
        s: "loc:@Variable_7"
      }
    }
  }
}
node {
  name: "Conv2D_3"
  op: "Conv2D"
  input: "Relu_2"
  input: "Variable_6/read"
  attr {
    key: "T"
    value {
      type: DT_FLOAT
    }
  }
  attr {
    key: "data_format"
    value {
      s: "NHWC"
    }
  }
  attr {
    key: "dilations"
    value {
      list {
        i: 1
        i: 1
        i: 1
        i: 1
      }
    }
  }
  attr {
    key: "padding"
    value {
      s: "SAME"
    }
  }
  attr {
    key: "strides"
    value {
      list {
        i: 1
        i: 1
        i: 1
        i: 1
      }
    }
  }
  attr {
    key: "use_cudnn_on_gpu"
    value {
      b: true
    }
  }
}
node {
  name: "add_3"
  op: "Add"
  input: "Conv2D_3"
  input: "Variable_7/read"
  attr {
    key: "T"
    value {
      type: DT_FLOAT
    }
  }
}
node {
  name: "Relu_3"
  op: "Relu"
  input: "add_3"
  attr {
    key: "T"
    value {
      type: DT_FLOAT
    }
  }
}
node {
  name: "truncated_normal_4/shape"
  op: "Const"
  attr {
    key: "dtype"
    value {
      type: DT_INT32
    }
  }
  attr {
    key: "value"
    value {
      tensor {
        dtype: DT_INT32
        tensor_shape {
          dim {
            size: 4
          }
        }
        tensor_content: "\003\000\000\000\003\000\000\000 \000\000\000 \000\000\000"
      }
    }
  }
}
node {
  name: "truncated_normal_4/mean"
  op: "Const"
  attr {
    key: "dtype"
    value {
      type: DT_FLOAT
    }
  }
  attr {
    key: "value"
    value {
      tensor {
        dtype: DT_FLOAT
        tensor_shape {
        }
        float_val: 0.0
      }
    }
  }
}
node {
  name: "truncated_normal_4/stddev"
  op: "Const"
  attr {
    key: "dtype"
    value {
      type: DT_FLOAT
    }
  }
  attr {
    key: "value"
    value {
      tensor {
        dtype: DT_FLOAT
        tensor_shape {
        }
        float_val: 0.009999999776482582
      }
    }
  }
}
node {
  name: "truncated_normal_4/TruncatedNormal"
  op: "TruncatedNormal"
  input: "truncated_normal_4/shape"
  attr {
    key: "T"
    value {
      type: DT_INT32
    }
  }
  attr {
    key: "dtype"
    value {
      type: DT_FLOAT
    }
  }
  attr {
    key: "seed"
    value {
      i: 0
    }
  }
  attr {
    key: "seed2"
    value {
      i: 0
    }
  }
}
node {
  name: "truncated_normal_4/mul"
  op: "Mul"
  input: "truncated_normal_4/TruncatedNormal"
  input: "truncated_normal_4/stddev"
  attr {
    key: "T"
    value {
      type: DT_FLOAT
    }
  }
}
node {
  name: "truncated_normal_4"
  op: "Add"
  input: "truncated_normal_4/mul"
  input: "truncated_normal_4/mean"
  attr {
    key: "T"
    value {
      type: DT_FLOAT
    }
  }
}
node {
  name: "Variable_8"
  op: "VariableV2"
  attr {
    key: "container"
    value {
      s: ""
    }
  }
  attr {
    key: "dtype"
    value {
      type: DT_FLOAT
    }
  }
  attr {
    key: "shape"
    value {
      shape {
        dim {
          size: 3
        }
        dim {
          size: 3
        }
        dim {
          size: 32
        }
        dim {
          size: 32
        }
      }
    }
  }
  attr {
    key: "shared_name"
    value {
      s: ""
    }
  }
}
node {
  name: "Variable_8/Assign"
  op: "Assign"
  input: "Variable_8"
  input: "truncated_normal_4"
  attr {
    key: "T"
    value {
      type: DT_FLOAT
    }
  }
  attr {
    key: "_class"
    value {
      list {
        s: "loc:@Variable_8"
      }
    }
  }
  attr {
    key: "use_locking"
    value {
      b: true
    }
  }
  attr {
    key: "validate_shape"
    value {
      b: true
    }
  }
}
node {
  name: "Variable_8/read"
  op: "Identity"
  input: "Variable_8"
  attr {
    key: "T"
    value {
      type: DT_FLOAT
    }
  }
  attr {
    key: "_class"
    value {
      list {
        s: "loc:@Variable_8"
      }
    }
  }
}
node {
  name: "zeros_4/shape_as_tensor"
  op: "Const"
  attr {
    key: "dtype"
    value {
      type: DT_INT32
    }
  }
  attr {
    key: "value"
    value {
      tensor {
        dtype: DT_INT32
        tensor_shape {
          dim {
            size: 1
          }
        }
        int_val: 32
      }
    }
  }
}
node {
  name: "zeros_4/Const"
  op: "Const"
  attr {
    key: "dtype"
    value {
      type: DT_FLOAT
    }
  }
  attr {
    key: "value"
    value {
      tensor {
        dtype: DT_FLOAT
        tensor_shape {
        }
        float_val: 0.0
      }
    }
  }
}
node {
  name: "zeros_4"
  op: "Fill"
  input: "zeros_4/shape_as_tensor"
  input: "zeros_4/Const"
  attr {
    key: "T"
    value {
      type: DT_FLOAT
    }
  }
  attr {
    key: "index_type"
    value {
      type: DT_INT32
    }
  }
}
node {
  name: "Variable_9"
  op: "VariableV2"
  attr {
    key: "container"
    value {
      s: ""
    }
  }
  attr {
    key: "dtype"
    value {
      type: DT_FLOAT
    }
  }
  attr {
    key: "shape"
    value {
      shape {
        dim {
          size: 32
        }
      }
    }
  }
  attr {
    key: "shared_name"
    value {
      s: ""
    }
  }
}
node {
  name: "Variable_9/Assign"
  op: "Assign"
  input: "Variable_9"
  input: "zeros_4"
  attr {
    key: "T"
    value {
      type: DT_FLOAT
    }
  }
  attr {
    key: "_class"
    value {
      list {
        s: "loc:@Variable_9"
      }
    }
  }
  attr {
    key: "use_locking"
    value {
      b: true
    }
  }
  attr {
    key: "validate_shape"
    value {
      b: true
    }
  }
}
node {
  name: "Variable_9/read"
  op: "Identity"
  input: "Variable_9"
  attr {
    key: "T"
    value {
      type: DT_FLOAT
    }
  }
  attr {
    key: "_class"
    value {
      list {
        s: "loc:@Variable_9"
      }
    }
  }
}
node {
  name: "Conv2D_4"
  op: "Conv2D"
  input: "Relu_3"
  input: "Variable_8/read"
  attr {
    key: "T"
    value {
      type: DT_FLOAT
    }
  }
  attr {
    key: "data_format"
    value {
      s: "NHWC"
    }
  }
  attr {
    key: "dilations"
    value {
      list {
        i: 1
        i: 1
        i: 1
        i: 1
      }
    }
  }
  attr {
    key: "padding"
    value {
      s: "SAME"
    }
  }
  attr {
    key: "strides"
    value {
      list {
        i: 1
        i: 1
        i: 1
        i: 1
      }
    }
  }
  attr {
    key: "use_cudnn_on_gpu"
    value {
      b: true
    }
  }
}
node {
  name: "add_4"
  op: "Add"
  input: "Conv2D_4"
  input: "Variable_9/read"
  attr {
    key: "T"
    value {
      type: DT_FLOAT
    }
  }
}
node {
  name: "Relu_4"
  op: "Relu"
  input: "add_4"
  attr {
    key: "T"
    value {
      type: DT_FLOAT
    }
  }
}
node {
  name: "truncated_normal_5/shape"
  op: "Const"
  attr {
    key: "dtype"
    value {
      type: DT_INT32
    }
  }
  attr {
    key: "value"
    value {
      tensor {
        dtype: DT_INT32
        tensor_shape {
          dim {
            size: 4
          }
        }
        tensor_content: "\003\000\000\000\003\000\000\000 \000\000\000 \000\000\000"
      }
    }
  }
}
node {
  name: "truncated_normal_5/mean"
  op: "Const"
  attr {
    key: "dtype"
    value {
      type: DT_FLOAT
    }
  }
  attr {
    key: "value"
    value {
      tensor {
        dtype: DT_FLOAT
        tensor_shape {
        }
        float_val: 0.0
      }
    }
  }
}
node {
  name: "truncated_normal_5/stddev"
  op: "Const"
  attr {
    key: "dtype"
    value {
      type: DT_FLOAT
    }
  }
  attr {
    key: "value"
    value {
      tensor {
        dtype: DT_FLOAT
        tensor_shape {
        }
        float_val: 0.009999999776482582
      }
    }
  }
}
node {
  name: "truncated_normal_5/TruncatedNormal"
  op: "TruncatedNormal"
  input: "truncated_normal_5/shape"
  attr {
    key: "T"
    value {
      type: DT_INT32
    }
  }
  attr {
    key: "dtype"
    value {
      type: DT_FLOAT
    }
  }
  attr {
    key: "seed"
    value {
      i: 0
    }
  }
  attr {
    key: "seed2"
    value {
      i: 0
    }
  }
}
node {
  name: "truncated_normal_5/mul"
  op: "Mul"
  input: "truncated_normal_5/TruncatedNormal"
  input: "truncated_normal_5/stddev"
  attr {
    key: "T"
    value {
      type: DT_FLOAT
    }
  }
}
node {
  name: "truncated_normal_5"
  op: "Add"
  input: "truncated_normal_5/mul"
  input: "truncated_normal_5/mean"
  attr {
    key: "T"
    value {
      type: DT_FLOAT
    }
  }
}
node {
  name: "Variable_10"
  op: "VariableV2"
  attr {
    key: "container"
    value {
      s: ""
    }
  }
  attr {
    key: "dtype"
    value {
      type: DT_FLOAT
    }
  }
  attr {
    key: "shape"
    value {
      shape {
        dim {
          size: 3
        }
        dim {
          size: 3
        }
        dim {
          size: 32
        }
        dim {
          size: 32
        }
      }
    }
  }
  attr {
    key: "shared_name"
    value {
      s: ""
    }
  }
}
node {
  name: "Variable_10/Assign"
  op: "Assign"
  input: "Variable_10"
  input: "truncated_normal_5"
  attr {
    key: "T"
    value {
      type: DT_FLOAT
    }
  }
  attr {
    key: "_class"
    value {
      list {
        s: "loc:@Variable_10"
      }
    }
  }
  attr {
    key: "use_locking"
    value {
      b: true
    }
  }
  attr {
    key: "validate_shape"
    value {
      b: true
    }
  }
}
node {
  name: "Variable_10/read"
  op: "Identity"
  input: "Variable_10"
  attr {
    key: "T"
    value {
      type: DT_FLOAT
    }
  }
  attr {
    key: "_class"
    value {
      list {
        s: "loc:@Variable_10"
      }
    }
  }
}
node {
  name: "zeros_5/shape_as_tensor"
  op: "Const"
  attr {
    key: "dtype"
    value {
      type: DT_INT32
    }
  }
  attr {
    key: "value"
    value {
      tensor {
        dtype: DT_INT32
        tensor_shape {
          dim {
            size: 1
          }
        }
        int_val: 32
      }
    }
  }
}
node {
  name: "zeros_5/Const"
  op: "Const"
  attr {
    key: "dtype"
    value {
      type: DT_FLOAT
    }
  }
  attr {
    key: "value"
    value {
      tensor {
        dtype: DT_FLOAT
        tensor_shape {
        }
        float_val: 0.0
      }
    }
  }
}
node {
  name: "zeros_5"
  op: "Fill"
  input: "zeros_5/shape_as_tensor"
  input: "zeros_5/Const"
  attr {
    key: "T"
    value {
      type: DT_FLOAT
    }
  }
  attr {
    key: "index_type"
    value {
      type: DT_INT32
    }
  }
}
node {
  name: "Variable_11"
  op: "VariableV2"
  attr {
    key: "container"
    value {
      s: ""
    }
  }
  attr {
    key: "dtype"
    value {
      type: DT_FLOAT
    }
  }
  attr {
    key: "shape"
    value {
      shape {
        dim {
          size: 32
        }
      }
    }
  }
  attr {
    key: "shared_name"
    value {
      s: ""
    }
  }
}
node {
  name: "Variable_11/Assign"
  op: "Assign"
  input: "Variable_11"
  input: "zeros_5"
  attr {
    key: "T"
    value {
      type: DT_FLOAT
    }
  }
  attr {
    key: "_class"
    value {
      list {
        s: "loc:@Variable_11"
      }
    }
  }
  attr {
    key: "use_locking"
    value {
      b: true
    }
  }
  attr {
    key: "validate_shape"
    value {
      b: true
    }
  }
}
node {
  name: "Variable_11/read"
  op: "Identity"
  input: "Variable_11"
  attr {
    key: "T"
    value {
      type: DT_FLOAT
    }
  }
  attr {
    key: "_class"
    value {
      list {
        s: "loc:@Variable_11"
      }
    }
  }
}
node {
  name: "Conv2D_5"
  op: "Conv2D"
  input: "Relu_4"
  input: "Variable_10/read"
  attr {
    key: "T"
    value {
      type: DT_FLOAT
    }
  }
  attr {
    key: "data_format"
    value {
      s: "NHWC"
    }
  }
  attr {
    key: "dilations"
    value {
      list {
        i: 1
        i: 1
        i: 1
        i: 1
      }
    }
  }
  attr {
    key: "padding"
    value {
      s: "SAME"
    }
  }
  attr {
    key: "strides"
    value {
      list {
        i: 1
        i: 1
        i: 1
        i: 1
      }
    }
  }
  attr {
    key: "use_cudnn_on_gpu"
    value {
      b: true
    }
  }
}
node {
  name: "add_5"
  op: "Add"
  input: "Conv2D_5"
  input: "Variable_11/read"
  attr {
    key: "T"
    value {
      type: DT_FLOAT
    }
  }
}
node {
  name: "Relu_5"
  op: "Relu"
  input: "add_5"
  attr {
    key: "T"
    value {
      type: DT_FLOAT
    }
  }
}
node {
  name: "Reshape/shape"
  op: "Const"
  attr {
    key: "dtype"
    value {
      type: DT_INT32
    }
  }
  attr {
    key: "value"
    value {
      tensor {
        dtype: DT_INT32
        tensor_shape {
          dim {
            size: 2
          }
        }
        tensor_content: "\377\377\377\377\000\n\000\000"
      }
    }
  }
}
node {
  name: "Reshape"
  op: "Reshape"
  input: "Relu_5"
  input: "Reshape/shape"
  attr {
    key: "T"
    value {
      type: DT_FLOAT
    }
  }
  attr {
    key: "Tshape"
    value {
      type: DT_INT32
    }
  }
}
node {
  name: "dense/kernel/Initializer/random_uniform/shape"
  op: "Const"
  attr {
    key: "_class"
    value {
      list {
        s: "loc:@dense/kernel"
      }
    }
  }
  attr {
    key: "dtype"
    value {
      type: DT_INT32
    }
  }
  attr {
    key: "value"
    value {
      tensor {
        dtype: DT_INT32
        tensor_shape {
          dim {
            size: 2
          }
        }
        tensor_content: "\000\n\000\000\350\003\000\000"
      }
    }
  }
}
node {
  name: "dense/kernel/Initializer/random_uniform/min"
  op: "Const"
  attr {
    key: "_class"
    value {
      list {
        s: "loc:@dense/kernel"
      }
    }
  }
  attr {
    key: "dtype"
    value {
      type: DT_FLOAT
    }
  }
  attr {
    key: "value"
    value {
      tensor {
        dtype: DT_FLOAT
        tensor_shape {
        }
        float_val: -0.041053541004657745
      }
    }
  }
}
node {
  name: "dense/kernel/Initializer/random_uniform/max"
  op: "Const"
  attr {
    key: "_class"
    value {
      list {
        s: "loc:@dense/kernel"
      }
    }
  }
  attr {
    key: "dtype"
    value {
      type: DT_FLOAT
    }
  }
  attr {
    key: "value"
    value {
      tensor {
        dtype: DT_FLOAT
        tensor_shape {
        }
        float_val: 0.041053541004657745
      }
    }
  }
}
node {
  name: "dense/kernel/Initializer/random_uniform/RandomUniform"
  op: "RandomUniform"
  input: "dense/kernel/Initializer/random_uniform/shape"
  attr {
    key: "T"
    value {
      type: DT_INT32
    }
  }
  attr {
    key: "_class"
    value {
      list {
        s: "loc:@dense/kernel"
      }
    }
  }
  attr {
    key: "dtype"
    value {
      type: DT_FLOAT
    }
  }
  attr {
    key: "seed"
    value {
      i: 0
    }
  }
  attr {
    key: "seed2"
    value {
      i: 0
    }
  }
}
node {
  name: "dense/kernel/Initializer/random_uniform/sub"
  op: "Sub"
  input: "dense/kernel/Initializer/random_uniform/max"
  input: "dense/kernel/Initializer/random_uniform/min"
  attr {
    key: "T"
    value {
      type: DT_FLOAT
    }
  }
  attr {
    key: "_class"
    value {
      list {
        s: "loc:@dense/kernel"
      }
    }
  }
}
node {
  name: "dense/kernel/Initializer/random_uniform/mul"
  op: "Mul"
  input: "dense/kernel/Initializer/random_uniform/RandomUniform"
  input: "dense/kernel/Initializer/random_uniform/sub"
  attr {
    key: "T"
    value {
      type: DT_FLOAT
    }
  }
  attr {
    key: "_class"
    value {
      list {
        s: "loc:@dense/kernel"
      }
    }
  }
}
node {
  name: "dense/kernel/Initializer/random_uniform"
  op: "Add"
  input: "dense/kernel/Initializer/random_uniform/mul"
  input: "dense/kernel/Initializer/random_uniform/min"
  attr {
    key: "T"
    value {
      type: DT_FLOAT
    }
  }
  attr {
    key: "_class"
    value {
      list {
        s: "loc:@dense/kernel"
      }
    }
  }
}
node {
  name: "dense/kernel"
  op: "VariableV2"
  attr {
    key: "_class"
    value {
      list {
        s: "loc:@dense/kernel"
      }
    }
  }
  attr {
    key: "container"
    value {
      s: ""
    }
  }
  attr {
    key: "dtype"
    value {
      type: DT_FLOAT
    }
  }
  attr {
    key: "shape"
    value {
      shape {
        dim {
          size: 2560
        }
        dim {
          size: 1000
        }
      }
    }
  }
  attr {
    key: "shared_name"
    value {
      s: ""
    }
  }
}
node {
  name: "dense/kernel/Assign"
  op: "Assign"
  input: "dense/kernel"
  input: "dense/kernel/Initializer/random_uniform"
  attr {
    key: "T"
    value {
      type: DT_FLOAT
    }
  }
  attr {
    key: "_class"
    value {
      list {
        s: "loc:@dense/kernel"
      }
    }
  }
  attr {
    key: "use_locking"
    value {
      b: true
    }
  }
  attr {
    key: "validate_shape"
    value {
      b: true
    }
  }
}
node {
  name: "dense/kernel/read"
  op: "Identity"
  input: "dense/kernel"
  attr {
    key: "T"
    value {
      type: DT_FLOAT
    }
  }
  attr {
    key: "_class"
    value {
      list {
        s: "loc:@dense/kernel"
      }
    }
  }
}
node {
  name: "dense/bias/Initializer/zeros/shape_as_tensor"
  op: "Const"
  attr {
    key: "_class"
    value {
      list {
        s: "loc:@dense/bias"
      }
    }
  }
  attr {
    key: "dtype"
    value {
      type: DT_INT32
    }
  }
  attr {
    key: "value"
    value {
      tensor {
        dtype: DT_INT32
        tensor_shape {
          dim {
            size: 1
          }
        }
        int_val: 1000
      }
    }
  }
}
node {
  name: "dense/bias/Initializer/zeros/Const"
  op: "Const"
  attr {
    key: "_class"
    value {
      list {
        s: "loc:@dense/bias"
      }
    }
  }
  attr {
    key: "dtype"
    value {
      type: DT_FLOAT
    }
  }
  attr {
    key: "value"
    value {
      tensor {
        dtype: DT_FLOAT
        tensor_shape {
        }
        float_val: 0.0
      }
    }
  }
}
node {
  name: "dense/bias/Initializer/zeros"
  op: "Fill"
  input: "dense/bias/Initializer/zeros/shape_as_tensor"
  input: "dense/bias/Initializer/zeros/Const"
  attr {
    key: "T"
    value {
      type: DT_FLOAT
    }
  }
  attr {
    key: "_class"
    value {
      list {
        s: "loc:@dense/bias"
      }
    }
  }
  attr {
    key: "index_type"
    value {
      type: DT_INT32
    }
  }
}
node {
  name: "dense/bias"
  op: "VariableV2"
  attr {
    key: "_class"
    value {
      list {
        s: "loc:@dense/bias"
      }
    }
  }
  attr {
    key: "container"
    value {
      s: ""
    }
  }
  attr {
    key: "dtype"
    value {
      type: DT_FLOAT
    }
  }
  attr {
    key: "shape"
    value {
      shape {
        dim {
          size: 1000
        }
      }
    }
  }
  attr {
    key: "shared_name"
    value {
      s: ""
    }
  }
}
node {
  name: "dense/bias/Assign"
  op: "Assign"
  input: "dense/bias"
  input: "dense/bias/Initializer/zeros"
  attr {
    key: "T"
    value {
      type: DT_FLOAT
    }
  }
  attr {
    key: "_class"
    value {
      list {
        s: "loc:@dense/bias"
      }
    }
  }
  attr {
    key: "use_locking"
    value {
      b: true
    }
  }
  attr {
    key: "validate_shape"
    value {
      b: true
    }
  }
}
node {
  name: "dense/bias/read"
  op: "Identity"
  input: "dense/bias"
  attr {
    key: "T"
    value {
      type: DT_FLOAT
    }
  }
  attr {
    key: "_class"
    value {
      list {
        s: "loc:@dense/bias"
      }
    }
  }
}
node {
  name: "dense/MatMul"
  op: "MatMul"
  input: "Reshape"
  input: "dense/kernel/read"
  attr {
    key: "T"
    value {
      type: DT_FLOAT
    }
  }
  attr {
    key: "transpose_a"
    value {
      b: false
    }
  }
  attr {
    key: "transpose_b"
    value {
      b: false
    }
  }
}
node {
  name: "dense/BiasAdd"
  op: "BiasAdd"
  input: "dense/MatMul"
  input: "dense/bias/read"
  attr {
    key: "T"
    value {
      type: DT_FLOAT
    }
  }
  attr {
    key: "data_format"
    value {
      s: "NHWC"
    }
  }
}
node {
  name: "dense/Sigmoid"
  op: "Sigmoid"
  input: "dense/BiasAdd"
  attr {
    key: "T"
    value {
      type: DT_FLOAT
    }
  }
}
node {
  name: "dense_1/kernel/Initializer/random_uniform/shape"
  op: "Const"
  attr {
    key: "_class"
    value {
      list {
        s: "loc:@dense_1/kernel"
      }
    }
  }
  attr {
    key: "dtype"
    value {
      type: DT_INT32
    }
  }
  attr {
    key: "value"
    value {
      tensor {
        dtype: DT_INT32
        tensor_shape {
          dim {
            size: 2
          }
        }
        tensor_content: "\350\003\000\000\334\005\000\000"
      }
    }
  }
}
node {
  name: "dense_1/kernel/Initializer/random_uniform/min"
  op: "Const"
  attr {
    key: "_class"
    value {
      list {
        s: "loc:@dense_1/kernel"
      }
    }
  }
  attr {
    key: "dtype"
    value {
      type: DT_FLOAT
    }
  }
  attr {
    key: "value"
    value {
      tensor {
        dtype: DT_FLOAT
        tensor_shape {
        }
        float_val: -0.04898979514837265
      }
    }
  }
}
node {
  name: "dense_1/kernel/Initializer/random_uniform/max"
  op: "Const"
  attr {
    key: "_class"
    value {
      list {
        s: "loc:@dense_1/kernel"
      }
    }
  }
  attr {
    key: "dtype"
    value {
      type: DT_FLOAT
    }
  }
  attr {
    key: "value"
    value {
      tensor {
        dtype: DT_FLOAT
        tensor_shape {
        }
        float_val: 0.04898979514837265
      }
    }
  }
}
node {
  name: "dense_1/kernel/Initializer/random_uniform/RandomUniform"
  op: "RandomUniform"
  input: "dense_1/kernel/Initializer/random_uniform/shape"
  attr {
    key: "T"
    value {
      type: DT_INT32
    }
  }
  attr {
    key: "_class"
    value {
      list {
        s: "loc:@dense_1/kernel"
      }
    }
  }
  attr {
    key: "dtype"
    value {
      type: DT_FLOAT
    }
  }
  attr {
    key: "seed"
    value {
      i: 0
    }
  }
  attr {
    key: "seed2"
    value {
      i: 0
    }
  }
}
node {
  name: "dense_1/kernel/Initializer/random_uniform/sub"
  op: "Sub"
  input: "dense_1/kernel/Initializer/random_uniform/max"
  input: "dense_1/kernel/Initializer/random_uniform/min"
  attr {
    key: "T"
    value {
      type: DT_FLOAT
    }
  }
  attr {
    key: "_class"
    value {
      list {
        s: "loc:@dense_1/kernel"
      }
    }
  }
}
node {
  name: "dense_1/kernel/Initializer/random_uniform/mul"
  op: "Mul"
  input: "dense_1/kernel/Initializer/random_uniform/RandomUniform"
  input: "dense_1/kernel/Initializer/random_uniform/sub"
  attr {
    key: "T"
    value {
      type: DT_FLOAT
    }
  }
  attr {
    key: "_class"
    value {
      list {
        s: "loc:@dense_1/kernel"
      }
    }
  }
}
node {
  name: "dense_1/kernel/Initializer/random_uniform"
  op: "Add"
  input: "dense_1/kernel/Initializer/random_uniform/mul"
  input: "dense_1/kernel/Initializer/random_uniform/min"
  attr {
    key: "T"
    value {
      type: DT_FLOAT
    }
  }
  attr {
    key: "_class"
    value {
      list {
        s: "loc:@dense_1/kernel"
      }
    }
  }
}
node {
  name: "dense_1/kernel"
  op: "VariableV2"
  attr {
    key: "_class"
    value {
      list {
        s: "loc:@dense_1/kernel"
      }
    }
  }
  attr {
    key: "container"
    value {
      s: ""
    }
  }
  attr {
    key: "dtype"
    value {
      type: DT_FLOAT
    }
  }
  attr {
    key: "shape"
    value {
      shape {
        dim {
          size: 1000
        }
        dim {
          size: 1500
        }
      }
    }
  }
  attr {
    key: "shared_name"
    value {
      s: ""
    }
  }
}
node {
  name: "dense_1/kernel/Assign"
  op: "Assign"
  input: "dense_1/kernel"
  input: "dense_1/kernel/Initializer/random_uniform"
  attr {
    key: "T"
    value {
      type: DT_FLOAT
    }
  }
  attr {
    key: "_class"
    value {
      list {
        s: "loc:@dense_1/kernel"
      }
    }
  }
  attr {
    key: "use_locking"
    value {
      b: true
    }
  }
  attr {
    key: "validate_shape"
    value {
      b: true
    }
  }
}
node {
  name: "dense_1/kernel/read"
  op: "Identity"
  input: "dense_1/kernel"
  attr {
    key: "T"
    value {
      type: DT_FLOAT
    }
  }
  attr {
    key: "_class"
    value {
      list {
        s: "loc:@dense_1/kernel"
      }
    }
  }
}
node {
  name: "dense_1/bias/Initializer/zeros/shape_as_tensor"
  op: "Const"
  attr {
    key: "_class"
    value {
      list {
        s: "loc:@dense_1/bias"
      }
    }
  }
  attr {
    key: "dtype"
    value {
      type: DT_INT32
    }
  }
  attr {
    key: "value"
    value {
      tensor {
        dtype: DT_INT32
        tensor_shape {
          dim {
            size: 1
          }
        }
        int_val: 1500
      }
    }
  }
}
node {
  name: "dense_1/bias/Initializer/zeros/Const"
  op: "Const"
  attr {
    key: "_class"
    value {
      list {
        s: "loc:@dense_1/bias"
      }
    }
  }
  attr {
    key: "dtype"
    value {
      type: DT_FLOAT
    }
  }
  attr {
    key: "value"
    value {
      tensor {
        dtype: DT_FLOAT
        tensor_shape {
        }
        float_val: 0.0
      }
    }
  }
}
node {
  name: "dense_1/bias/Initializer/zeros"
  op: "Fill"
  input: "dense_1/bias/Initializer/zeros/shape_as_tensor"
  input: "dense_1/bias/Initializer/zeros/Const"
  attr {
    key: "T"
    value {
      type: DT_FLOAT
    }
  }
  attr {
    key: "_class"
    value {
      list {
        s: "loc:@dense_1/bias"
      }
    }
  }
  attr {
    key: "index_type"
    value {
      type: DT_INT32
    }
  }
}
node {
  name: "dense_1/bias"
  op: "VariableV2"
  attr {
    key: "_class"
    value {
      list {
        s: "loc:@dense_1/bias"
      }
    }
  }
  attr {
    key: "container"
    value {
      s: ""
    }
  }
  attr {
    key: "dtype"
    value {
      type: DT_FLOAT
    }
  }
  attr {
    key: "shape"
    value {
      shape {
        dim {
          size: 1500
        }
      }
    }
  }
  attr {
    key: "shared_name"
    value {
      s: ""
    }
  }
}
node {
  name: "dense_1/bias/Assign"
  op: "Assign"
  input: "dense_1/bias"
  input: "dense_1/bias/Initializer/zeros"
  attr {
    key: "T"
    value {
      type: DT_FLOAT
    }
  }
  attr {
    key: "_class"
    value {
      list {
        s: "loc:@dense_1/bias"
      }
    }
  }
  attr {
    key: "use_locking"
    value {
      b: true
    }
  }
  attr {
    key: "validate_shape"
    value {
      b: true
    }
  }
}
node {
  name: "dense_1/bias/read"
  op: "Identity"
  input: "dense_1/bias"
  attr {
    key: "T"
    value {
      type: DT_FLOAT
    }
  }
  attr {
    key: "_class"
    value {
      list {
        s: "loc:@dense_1/bias"
      }
    }
  }
}
node {
  name: "dense_1/MatMul"
  op: "MatMul"
  input: "dense/Sigmoid"
  input: "dense_1/kernel/read"
  attr {
    key: "T"
    value {
      type: DT_FLOAT
    }
  }
  attr {
    key: "transpose_a"
    value {
      b: false
    }
  }
  attr {
    key: "transpose_b"
    value {
      b: false
    }
  }
}
node {
  name: "dense_1/BiasAdd"
  op: "BiasAdd"
  input: "dense_1/MatMul"
  input: "dense_1/bias/read"
  attr {
    key: "T"
    value {
      type: DT_FLOAT
    }
  }
  attr {
    key: "data_format"
    value {
      s: "NHWC"
    }
  }
}
node {
  name: "dense_1/Sigmoid"
  op: "Sigmoid"
  input: "dense_1/BiasAdd"
  attr {
    key: "T"
    value {
      type: DT_FLOAT
    }
  }
}
node {
  name: "ground_truth_input"
  op: "Placeholder"
  attr {
    key: "dtype"
    value {
      type: DT_FLOAT
    }
  }
  attr {
    key: "shape"
    value {
      shape {
        dim {
          size: 200
        }
        dim {
          size: 1500
        }
      }
    }
  }
}
node {
  name: "loss/sigmoid_cross_entropy_loss/xentropy/zeros_like"
  op: "ZerosLike"
  input: "dense_1/Sigmoid"
  attr {
    key: "T"
    value {
      type: DT_FLOAT
    }
  }
}
node {
  name: "loss/sigmoid_cross_entropy_loss/xentropy/GreaterEqual"
  op: "GreaterEqual"
  input: "dense_1/Sigmoid"
  input: "loss/sigmoid_cross_entropy_loss/xentropy/zeros_like"
  attr {
    key: "T"
    value {
      type: DT_FLOAT
    }
  }
}
node {
  name: "loss/sigmoid_cross_entropy_loss/xentropy/Select"
  op: "Select"
  input: "loss/sigmoid_cross_entropy_loss/xentropy/GreaterEqual"
  input: "dense_1/Sigmoid"
  input: "loss/sigmoid_cross_entropy_loss/xentropy/zeros_like"
  attr {
    key: "T"
    value {
      type: DT_FLOAT
    }
  }
}
node {
  name: "loss/sigmoid_cross_entropy_loss/xentropy/Neg"
  op: "Neg"
  input: "dense_1/Sigmoid"
  attr {
    key: "T"
    value {
      type: DT_FLOAT
    }
  }
}
node {
  name: "loss/sigmoid_cross_entropy_loss/xentropy/Select_1"
  op: "Select"
  input: "loss/sigmoid_cross_entropy_loss/xentropy/GreaterEqual"
  input: "loss/sigmoid_cross_entropy_loss/xentropy/Neg"
  input: "dense_1/Sigmoid"
  attr {
    key: "T"
    value {
      type: DT_FLOAT
    }
  }
}
node {
  name: "loss/sigmoid_cross_entropy_loss/xentropy/mul"
  op: "Mul"
  input: "dense_1/Sigmoid"
  input: "ground_truth_input"
  attr {
    key: "T"
    value {
      type: DT_FLOAT
    }
  }
}
node {
  name: "loss/sigmoid_cross_entropy_loss/xentropy/sub"
  op: "Sub"
  input: "loss/sigmoid_cross_entropy_loss/xentropy/Select"
  input: "loss/sigmoid_cross_entropy_loss/xentropy/mul"
  attr {
    key: "T"
    value {
      type: DT_FLOAT
    }
  }
}
node {
  name: "loss/sigmoid_cross_entropy_loss/xentropy/Exp"
  op: "Exp"
  input: "loss/sigmoid_cross_entropy_loss/xentropy/Select_1"
  attr {
    key: "T"
    value {
      type: DT_FLOAT
    }
  }
}
node {
  name: "loss/sigmoid_cross_entropy_loss/xentropy/Log1p"
  op: "Log1p"
  input: "loss/sigmoid_cross_entropy_loss/xentropy/Exp"
  attr {
    key: "T"
    value {
      type: DT_FLOAT
    }
  }
}
node {
  name: "loss/sigmoid_cross_entropy_loss/xentropy"
  op: "Add"
  input: "loss/sigmoid_cross_entropy_loss/xentropy/sub"
  input: "loss/sigmoid_cross_entropy_loss/xentropy/Log1p"
  attr {
    key: "T"
    value {
      type: DT_FLOAT
    }
  }
}
node {
  name: "loss/sigmoid_cross_entropy_loss/assert_broadcastable/weights"
  op: "Const"
  attr {
    key: "dtype"
    value {
      type: DT_FLOAT
    }
  }
  attr {
    key: "value"
    value {
      tensor {
        dtype: DT_FLOAT
        tensor_shape {
        }
        float_val: 1.0
      }
    }
  }
}
node {
  name: "loss/sigmoid_cross_entropy_loss/assert_broadcastable/weights/shape"
  op: "Const"
  attr {
    key: "dtype"
    value {
      type: DT_INT32
    }
  }
  attr {
    key: "value"
    value {
      tensor {
        dtype: DT_INT32
        tensor_shape {
          dim {
          }
        }
      }
    }
  }
}
node {
  name: "loss/sigmoid_cross_entropy_loss/assert_broadcastable/weights/rank"
  op: "Const"
  attr {
    key: "dtype"
    value {
      type: DT_INT32
    }
  }
  attr {
    key: "value"
    value {
      tensor {
        dtype: DT_INT32
        tensor_shape {
        }
        int_val: 0
      }
    }
  }
}
node {
  name: "loss/sigmoid_cross_entropy_loss/assert_broadcastable/values/shape"
  op: "Const"
  attr {
    key: "dtype"
    value {
      type: DT_INT32
    }
  }
  attr {
    key: "value"
    value {
      tensor {
        dtype: DT_INT32
        tensor_shape {
          dim {
            size: 2
          }
        }
        tensor_content: "\310\000\000\000\334\005\000\000"
      }
    }
  }
}
node {
  name: "loss/sigmoid_cross_entropy_loss/assert_broadcastable/values/rank"
  op: "Const"
  attr {
    key: "dtype"
    value {
      type: DT_INT32
    }
  }
  attr {
    key: "value"
    value {
      tensor {
        dtype: DT_INT32
        tensor_shape {
        }
        int_val: 2
      }
    }
  }
}
node {
  name: "loss/sigmoid_cross_entropy_loss/assert_broadcastable/static_scalar_check_success"
  op: "NoOp"
}
node {
  name: "loss/sigmoid_cross_entropy_loss/ToFloat_1/x"
  op: "Const"
  input: "^loss/sigmoid_cross_entropy_loss/assert_broadcastable/static_scalar_check_success"
  attr {
    key: "dtype"
    value {
      type: DT_FLOAT
    }
  }
  attr {
    key: "value"
    value {
      tensor {
        dtype: DT_FLOAT
        tensor_shape {
        }
        float_val: 1.0
      }
    }
  }
}
node {
  name: "loss/sigmoid_cross_entropy_loss/Mul"
  op: "Mul"
  input: "loss/sigmoid_cross_entropy_loss/xentropy"
  input: "loss/sigmoid_cross_entropy_loss/ToFloat_1/x"
  attr {
    key: "T"
    value {
      type: DT_FLOAT
    }
  }
}
node {
  name: "loss/sigmoid_cross_entropy_loss/Const"
  op: "Const"
  input: "^loss/sigmoid_cross_entropy_loss/assert_broadcastable/static_scalar_check_success"
  attr {
    key: "dtype"
    value {
      type: DT_INT32
    }
  }
  attr {
    key: "value"
    value {
      tensor {
        dtype: DT_INT32
        tensor_shape {
          dim {
            size: 2
          }
        }
        tensor_content: "\000\000\000\000\001\000\000\000"
      }
    }
  }
}
node {
  name: "loss/sigmoid_cross_entropy_loss/Sum"
  op: "Sum"
  input: "loss/sigmoid_cross_entropy_loss/Mul"
  input: "loss/sigmoid_cross_entropy_loss/Const"
  attr {
    key: "T"
    value {
      type: DT_FLOAT
    }
  }
  attr {
    key: "Tidx"
    value {
      type: DT_INT32
    }
  }
  attr {
    key: "keep_dims"
    value {
      b: false
    }
  }
}
node {
  name: "loss/sigmoid_cross_entropy_loss/num_present/Equal/y"
  op: "Const"
  input: "^loss/sigmoid_cross_entropy_loss/assert_broadcastable/static_scalar_check_success"
  attr {
    key: "dtype"
    value {
      type: DT_FLOAT
    }
  }
  attr {
    key: "value"
    value {
      tensor {
        dtype: DT_FLOAT
        tensor_shape {
        }
        float_val: 0.0
      }
    }
  }
}
node {
  name: "loss/sigmoid_cross_entropy_loss/num_present/Equal"
  op: "Equal"
  input: "loss/sigmoid_cross_entropy_loss/ToFloat_1/x"
  input: "loss/sigmoid_cross_entropy_loss/num_present/Equal/y"
  attr {
    key: "T"
    value {
      type: DT_FLOAT
    }
  }
}
node {
  name: "loss/sigmoid_cross_entropy_loss/num_present/zeros_like/shape_as_tensor"
  op: "Const"
  input: "^loss/sigmoid_cross_entropy_loss/assert_broadcastable/static_scalar_check_success"
  attr {
    key: "dtype"
    value {
      type: DT_INT32
    }
  }
  attr {
    key: "value"
    value {
      tensor {
        dtype: DT_INT32
        tensor_shape {
          dim {
          }
        }
      }
    }
  }
}
node {
  name: "loss/sigmoid_cross_entropy_loss/num_present/zeros_like/Const"
  op: "Const"
  input: "^loss/sigmoid_cross_entropy_loss/assert_broadcastable/static_scalar_check_success"
  attr {
    key: "dtype"
    value {
      type: DT_FLOAT
    }
  }
  attr {
    key: "value"
    value {
      tensor {
        dtype: DT_FLOAT
        tensor_shape {
        }
        float_val: 0.0
      }
    }
  }
}
node {
  name: "loss/sigmoid_cross_entropy_loss/num_present/zeros_like"
  op: "Fill"
  input: "loss/sigmoid_cross_entropy_loss/num_present/zeros_like/shape_as_tensor"
  input: "loss/sigmoid_cross_entropy_loss/num_present/zeros_like/Const"
  attr {
    key: "T"
    value {
      type: DT_FLOAT
    }
  }
  attr {
    key: "index_type"
    value {
      type: DT_INT32
    }
  }
}
node {
  name: "loss/sigmoid_cross_entropy_loss/num_present/ones_like/Shape"
  op: "Const"
  input: "^loss/sigmoid_cross_entropy_loss/assert_broadcastable/static_scalar_check_success"
  attr {
    key: "dtype"
    value {
      type: DT_INT32
    }
  }
  attr {
    key: "value"
    value {
      tensor {
        dtype: DT_INT32
        tensor_shape {
          dim {
          }
        }
      }
    }
  }
}
node {
  name: "loss/sigmoid_cross_entropy_loss/num_present/ones_like/Const"
  op: "Const"
  input: "^loss/sigmoid_cross_entropy_loss/assert_broadcastable/static_scalar_check_success"
  attr {
    key: "dtype"
    value {
      type: DT_FLOAT
    }
  }
  attr {
    key: "value"
    value {
      tensor {
        dtype: DT_FLOAT
        tensor_shape {
        }
        float_val: 1.0
      }
    }
  }
}
node {
  name: "loss/sigmoid_cross_entropy_loss/num_present/ones_like"
  op: "Fill"
  input: "loss/sigmoid_cross_entropy_loss/num_present/ones_like/Shape"
  input: "loss/sigmoid_cross_entropy_loss/num_present/ones_like/Const"
  attr {
    key: "T"
    value {
      type: DT_FLOAT
    }
  }
  attr {
    key: "index_type"
    value {
      type: DT_INT32
    }
  }
}
node {
  name: "loss/sigmoid_cross_entropy_loss/num_present/Select"
  op: "Select"
  input: "loss/sigmoid_cross_entropy_loss/num_present/Equal"
  input: "loss/sigmoid_cross_entropy_loss/num_present/zeros_like"
  input: "loss/sigmoid_cross_entropy_loss/num_present/ones_like"
  attr {
    key: "T"
    value {
      type: DT_FLOAT
    }
  }
}
node {
  name: "loss/sigmoid_cross_entropy_loss/num_present/broadcast_weights/assert_broadcastable/weights/shape"
  op: "Const"
  input: "^loss/sigmoid_cross_entropy_loss/assert_broadcastable/static_scalar_check_success"
  attr {
    key: "dtype"
    value {
      type: DT_INT32
    }
  }
  attr {
    key: "value"
    value {
      tensor {
        dtype: DT_INT32
        tensor_shape {
          dim {
          }
        }
      }
    }
  }
}
node {
  name: "loss/sigmoid_cross_entropy_loss/num_present/broadcast_weights/assert_broadcastable/weights/rank"
  op: "Const"
  input: "^loss/sigmoid_cross_entropy_loss/assert_broadcastable/static_scalar_check_success"
  attr {
    key: "dtype"
    value {
      type: DT_INT32
    }
  }
  attr {
    key: "value"
    value {
      tensor {
        dtype: DT_INT32
        tensor_shape {
        }
        int_val: 0
      }
    }
  }
}
node {
  name: "loss/sigmoid_cross_entropy_loss/num_present/broadcast_weights/assert_broadcastable/values/shape"
  op: "Const"
  input: "^loss/sigmoid_cross_entropy_loss/assert_broadcastable/static_scalar_check_success"
  attr {
    key: "dtype"
    value {
      type: DT_INT32
    }
  }
  attr {
    key: "value"
    value {
      tensor {
        dtype: DT_INT32
        tensor_shape {
          dim {
            size: 2
          }
        }
        tensor_content: "\310\000\000\000\334\005\000\000"
      }
    }
  }
}
node {
  name: "loss/sigmoid_cross_entropy_loss/num_present/broadcast_weights/assert_broadcastable/values/rank"
  op: "Const"
  input: "^loss/sigmoid_cross_entropy_loss/assert_broadcastable/static_scalar_check_success"
  attr {
    key: "dtype"
    value {
      type: DT_INT32
    }
  }
  attr {
    key: "value"
    value {
      tensor {
        dtype: DT_INT32
        tensor_shape {
        }
        int_val: 2
      }
    }
  }
}
node {
  name: "loss/sigmoid_cross_entropy_loss/num_present/broadcast_weights/assert_broadcastable/static_scalar_check_success"
  op: "NoOp"
  input: "^loss/sigmoid_cross_entropy_loss/assert_broadcastable/static_scalar_check_success"
}
node {
  name: "loss/sigmoid_cross_entropy_loss/num_present/broadcast_weights/ones_like/Shape"
  op: "Const"
  input: "^loss/sigmoid_cross_entropy_loss/assert_broadcastable/static_scalar_check_success"
  input: "^loss/sigmoid_cross_entropy_loss/num_present/broadcast_weights/assert_broadcastable/static_scalar_check_success"
  attr {
    key: "dtype"
    value {
      type: DT_INT32
    }
  }
  attr {
    key: "value"
    value {
      tensor {
        dtype: DT_INT32
        tensor_shape {
          dim {
            size: 2
          }
        }
        tensor_content: "\310\000\000\000\334\005\000\000"
      }
    }
  }
}
node {
  name: "loss/sigmoid_cross_entropy_loss/num_present/broadcast_weights/ones_like/Const"
  op: "Const"
  input: "^loss/sigmoid_cross_entropy_loss/assert_broadcastable/static_scalar_check_success"
  input: "^loss/sigmoid_cross_entropy_loss/num_present/broadcast_weights/assert_broadcastable/static_scalar_check_success"
  attr {
    key: "dtype"
    value {
      type: DT_FLOAT
    }
  }
  attr {
    key: "value"
    value {
      tensor {
        dtype: DT_FLOAT
        tensor_shape {
        }
        float_val: 1.0
      }
    }
  }
}
node {
  name: "loss/sigmoid_cross_entropy_loss/num_present/broadcast_weights/ones_like"
  op: "Fill"
  input: "loss/sigmoid_cross_entropy_loss/num_present/broadcast_weights/ones_like/Shape"
  input: "loss/sigmoid_cross_entropy_loss/num_present/broadcast_weights/ones_like/Const"
  attr {
    key: "T"
    value {
      type: DT_FLOAT
    }
  }
  attr {
    key: "index_type"
    value {
      type: DT_INT32
    }
  }
}
node {
  name: "loss/sigmoid_cross_entropy_loss/num_present/broadcast_weights"
  op: "Mul"
  input: "loss/sigmoid_cross_entropy_loss/num_present/Select"
  input: "loss/sigmoid_cross_entropy_loss/num_present/broadcast_weights/ones_like"
  attr {
    key: "T"
    value {
      type: DT_FLOAT
    }
  }
}
node {
  name: "loss/sigmoid_cross_entropy_loss/num_present/Const"
  op: "Const"
  input: "^loss/sigmoid_cross_entropy_loss/assert_broadcastable/static_scalar_check_success"
  attr {
    key: "dtype"
    value {
      type: DT_INT32
    }
  }
  attr {
    key: "value"
    value {
      tensor {
        dtype: DT_INT32
        tensor_shape {
          dim {
            size: 2
          }
        }
        tensor_content: "\000\000\000\000\001\000\000\000"
      }
    }
  }
}
node {
  name: "loss/sigmoid_cross_entropy_loss/num_present"
  op: "Sum"
  input: "loss/sigmoid_cross_entropy_loss/num_present/broadcast_weights"
  input: "loss/sigmoid_cross_entropy_loss/num_present/Const"
  attr {
    key: "T"
    value {
      type: DT_FLOAT
    }
  }
  attr {
    key: "Tidx"
    value {
      type: DT_INT32
    }
  }
  attr {
    key: "keep_dims"
    value {
      b: false
    }
  }
}
node {
  name: "loss/sigmoid_cross_entropy_loss/Const_1"
  op: "Const"
  input: "^loss/sigmoid_cross_entropy_loss/assert_broadcastable/static_scalar_check_success"
  attr {
    key: "dtype"
    value {
      type: DT_INT32
    }
  }
  attr {
    key: "value"
    value {
      tensor {
        dtype: DT_INT32
        tensor_shape {
          dim {
          }
        }
      }
    }
  }
}
node {
  name: "loss/sigmoid_cross_entropy_loss/Sum_1"
  op: "Sum"
  input: "loss/sigmoid_cross_entropy_loss/Sum"
  input: "loss/sigmoid_cross_entropy_loss/Const_1"
  attr {
    key: "T"
    value {
      type: DT_FLOAT
    }
  }
  attr {
    key: "Tidx"
    value {
      type: DT_INT32
    }
  }
  attr {
    key: "keep_dims"
    value {
      b: false
    }
  }
}
node {
  name: "loss/sigmoid_cross_entropy_loss/Greater/y"
  op: "Const"
  input: "^loss/sigmoid_cross_entropy_loss/assert_broadcastable/static_scalar_check_success"
  attr {
    key: "dtype"
    value {
      type: DT_FLOAT
    }
  }
  attr {
    key: "value"
    value {
      tensor {
        dtype: DT_FLOAT
        tensor_shape {
        }
        float_val: 0.0
      }
    }
  }
}
node {
  name: "loss/sigmoid_cross_entropy_loss/Greater"
  op: "Greater"
  input: "loss/sigmoid_cross_entropy_loss/num_present"
  input: "loss/sigmoid_cross_entropy_loss/Greater/y"
  attr {
    key: "T"
    value {
      type: DT_FLOAT
    }
  }
}
node {
  name: "loss/sigmoid_cross_entropy_loss/Equal/y"
  op: "Const"
  input: "^loss/sigmoid_cross_entropy_loss/assert_broadcastable/static_scalar_check_success"
  attr {
    key: "dtype"
    value {
      type: DT_FLOAT
    }
  }
  attr {
    key: "value"
    value {
      tensor {
        dtype: DT_FLOAT
        tensor_shape {
        }
        float_val: 0.0
      }
    }
  }
}
node {
  name: "loss/sigmoid_cross_entropy_loss/Equal"
  op: "Equal"
  input: "loss/sigmoid_cross_entropy_loss/num_present"
  input: "loss/sigmoid_cross_entropy_loss/Equal/y"
  attr {
    key: "T"
    value {
      type: DT_FLOAT
    }
  }
}
node {
  name: "loss/sigmoid_cross_entropy_loss/ones_like/Shape"
  op: "Const"
  input: "^loss/sigmoid_cross_entropy_loss/assert_broadcastable/static_scalar_check_success"
  attr {
    key: "dtype"
    value {
      type: DT_INT32
    }
  }
  attr {
    key: "value"
    value {
      tensor {
        dtype: DT_INT32
        tensor_shape {
          dim {
          }
        }
      }
    }
  }
}
node {
  name: "loss/sigmoid_cross_entropy_loss/ones_like/Const"
  op: "Const"
  input: "^loss/sigmoid_cross_entropy_loss/assert_broadcastable/static_scalar_check_success"
  attr {
    key: "dtype"
    value {
      type: DT_FLOAT
    }
  }
  attr {
    key: "value"
    value {
      tensor {
        dtype: DT_FLOAT
        tensor_shape {
        }
        float_val: 1.0
      }
    }
  }
}
node {
  name: "loss/sigmoid_cross_entropy_loss/ones_like"
  op: "Fill"
  input: "loss/sigmoid_cross_entropy_loss/ones_like/Shape"
  input: "loss/sigmoid_cross_entropy_loss/ones_like/Const"
  attr {
    key: "T"
    value {
      type: DT_FLOAT
    }
  }
  attr {
    key: "index_type"
    value {
      type: DT_INT32
    }
  }
}
node {
  name: "loss/sigmoid_cross_entropy_loss/Select"
  op: "Select"
  input: "loss/sigmoid_cross_entropy_loss/Equal"
  input: "loss/sigmoid_cross_entropy_loss/ones_like"
  input: "loss/sigmoid_cross_entropy_loss/num_present"
  attr {
    key: "T"
    value {
      type: DT_FLOAT
    }
  }
}
node {
  name: "loss/sigmoid_cross_entropy_loss/div"
  op: "RealDiv"
  input: "loss/sigmoid_cross_entropy_loss/Sum_1"
  input: "loss/sigmoid_cross_entropy_loss/Select"
  attr {
    key: "T"
    value {
      type: DT_FLOAT
    }
  }
}
node {
  name: "loss/sigmoid_cross_entropy_loss/zeros_like/shape_as_tensor"
  op: "Const"
  input: "^loss/sigmoid_cross_entropy_loss/assert_broadcastable/static_scalar_check_success"
  attr {
    key: "dtype"
    value {
      type: DT_INT32
    }
  }
  attr {
    key: "value"
    value {
      tensor {
        dtype: DT_INT32
        tensor_shape {
          dim {
          }
        }
      }
    }
  }
}
node {
  name: "loss/sigmoid_cross_entropy_loss/zeros_like/Const"
  op: "Const"
  input: "^loss/sigmoid_cross_entropy_loss/assert_broadcastable/static_scalar_check_success"
  attr {
    key: "dtype"
    value {
      type: DT_FLOAT
    }
  }
  attr {
    key: "value"
    value {
      tensor {
        dtype: DT_FLOAT
        tensor_shape {
        }
        float_val: 0.0
      }
    }
  }
}
node {
  name: "loss/sigmoid_cross_entropy_loss/zeros_like"
  op: "Fill"
  input: "loss/sigmoid_cross_entropy_loss/zeros_like/shape_as_tensor"
  input: "loss/sigmoid_cross_entropy_loss/zeros_like/Const"
  attr {
    key: "T"
    value {
      type: DT_FLOAT
    }
  }
  attr {
    key: "index_type"
    value {
      type: DT_INT32
    }
  }
}
node {
  name: "loss/sigmoid_cross_entropy_loss/value"
  op: "Select"
  input: "loss/sigmoid_cross_entropy_loss/Greater"
  input: "loss/sigmoid_cross_entropy_loss/div"
  input: "loss/sigmoid_cross_entropy_loss/zeros_like"
  attr {
    key: "T"
    value {
      type: DT_FLOAT
    }
  }
}
node {
  name: "loss_1/tags"
  op: "Const"
  attr {
    key: "dtype"
    value {
      type: DT_STRING
    }
  }
  attr {
    key: "value"
    value {
      tensor {
        dtype: DT_STRING
        tensor_shape {
        }
        string_val: "loss_1"
      }
    }
  }
}
node {
  name: "loss_1"
  op: "ScalarSummary"
  input: "loss_1/tags"
  input: "loss/sigmoid_cross_entropy_loss/value"
  attr {
    key: "T"
    value {
      type: DT_FLOAT
    }
  }
}
node {
  name: "train/learning_rate_input"
  op: "Placeholder"
  attr {
    key: "dtype"
    value {
      type: DT_FLOAT
    }
  }
  attr {
    key: "shape"
    value {
      shape {
      }
    }
  }
}
node {
  name: "train/gradients/Shape"
  op: "Const"
  attr {
    key: "dtype"
    value {
      type: DT_INT32
    }
  }
  attr {
    key: "value"
    value {
      tensor {
        dtype: DT_INT32
        tensor_shape {
          dim {
          }
        }
      }
    }
  }
}
node {
  name: "train/gradients/grad_ys_0"
  op: "Const"
  attr {
    key: "dtype"
    value {
      type: DT_FLOAT
    }
  }
  attr {
    key: "value"
    value {
      tensor {
        dtype: DT_FLOAT
        tensor_shape {
        }
        float_val: 1.0
      }
    }
  }
}
node {
  name: "train/gradients/Fill"
  op: "Fill"
  input: "train/gradients/Shape"
  input: "train/gradients/grad_ys_0"
  attr {
    key: "T"
    value {
      type: DT_FLOAT
    }
  }
  attr {
    key: "index_type"
    value {
      type: DT_INT32
    }
  }
}
node {
  name: "train/gradients/loss/sigmoid_cross_entropy_loss/value_grad/zeros_like/shape_as_tensor"
  op: "Const"
  attr {
    key: "dtype"
    value {
      type: DT_INT32
    }
  }
  attr {
    key: "value"
    value {
      tensor {
        dtype: DT_INT32
        tensor_shape {
          dim {
          }
        }
      }
    }
  }
}
node {
  name: "train/gradients/loss/sigmoid_cross_entropy_loss/value_grad/zeros_like/Const"
  op: "Const"
  attr {
    key: "dtype"
    value {
      type: DT_FLOAT
    }
  }
  attr {
    key: "value"
    value {
      tensor {
        dtype: DT_FLOAT
        tensor_shape {
        }
        float_val: 0.0
      }
    }
  }
}
node {
  name: "train/gradients/loss/sigmoid_cross_entropy_loss/value_grad/zeros_like"
  op: "Fill"
  input: "train/gradients/loss/sigmoid_cross_entropy_loss/value_grad/zeros_like/shape_as_tensor"
  input: "train/gradients/loss/sigmoid_cross_entropy_loss/value_grad/zeros_like/Const"
  attr {
    key: "T"
    value {
      type: DT_FLOAT
    }
  }
  attr {
    key: "index_type"
    value {
      type: DT_INT32
    }
  }
}
node {
  name: "train/gradients/loss/sigmoid_cross_entropy_loss/value_grad/Select"
  op: "Select"
  input: "loss/sigmoid_cross_entropy_loss/Greater"
  input: "train/gradients/Fill"
  input: "train/gradients/loss/sigmoid_cross_entropy_loss/value_grad/zeros_like"
  attr {
    key: "T"
    value {
      type: DT_FLOAT
    }
  }
}
node {
  name: "train/gradients/loss/sigmoid_cross_entropy_loss/value_grad/Select_1"
  op: "Select"
  input: "loss/sigmoid_cross_entropy_loss/Greater"
  input: "train/gradients/loss/sigmoid_cross_entropy_loss/value_grad/zeros_like"
  input: "train/gradients/Fill"
  attr {
    key: "T"
    value {
      type: DT_FLOAT
    }
  }
}
node {
  name: "train/gradients/loss/sigmoid_cross_entropy_loss/value_grad/tuple/group_deps"
  op: "NoOp"
  input: "^train/gradients/loss/sigmoid_cross_entropy_loss/value_grad/Select"
  input: "^train/gradients/loss/sigmoid_cross_entropy_loss/value_grad/Select_1"
}
node {
  name: "train/gradients/loss/sigmoid_cross_entropy_loss/value_grad/tuple/control_dependency"
  op: "Identity"
  input: "train/gradients/loss/sigmoid_cross_entropy_loss/value_grad/Select"
  input: "^train/gradients/loss/sigmoid_cross_entropy_loss/value_grad/tuple/group_deps"
  attr {
    key: "T"
    value {
      type: DT_FLOAT
    }
  }
  attr {
    key: "_class"
    value {
      list {
        s: "loc:@train/gradients/loss/sigmoid_cross_entropy_loss/value_grad/Select"
      }
    }
  }
}
node {
  name: "train/gradients/loss/sigmoid_cross_entropy_loss/value_grad/tuple/control_dependency_1"
  op: "Identity"
  input: "train/gradients/loss/sigmoid_cross_entropy_loss/value_grad/Select_1"
  input: "^train/gradients/loss/sigmoid_cross_entropy_loss/value_grad/tuple/group_deps"
  attr {
    key: "T"
    value {
      type: DT_FLOAT
    }
  }
  attr {
    key: "_class"
    value {
      list {
        s: "loc:@train/gradients/loss/sigmoid_cross_entropy_loss/value_grad/Select_1"
      }
    }
  }
}
node {
  name: "train/gradients/loss/sigmoid_cross_entropy_loss/div_grad/Shape"
  op: "Const"
  attr {
    key: "dtype"
    value {
      type: DT_INT32
    }
  }
  attr {
    key: "value"
    value {
      tensor {
        dtype: DT_INT32
        tensor_shape {
          dim {
          }
        }
      }
    }
  }
}
node {
  name: "train/gradients/loss/sigmoid_cross_entropy_loss/div_grad/Shape_1"
  op: "Const"
  attr {
    key: "dtype"
    value {
      type: DT_INT32
    }
  }
  attr {
    key: "value"
    value {
      tensor {
        dtype: DT_INT32
        tensor_shape {
          dim {
          }
        }
      }
    }
  }
}
node {
  name: "train/gradients/loss/sigmoid_cross_entropy_loss/div_grad/BroadcastGradientArgs"
  op: "BroadcastGradientArgs"
  input: "train/gradients/loss/sigmoid_cross_entropy_loss/div_grad/Shape"
  input: "train/gradients/loss/sigmoid_cross_entropy_loss/div_grad/Shape_1"
  attr {
    key: "T"
    value {
      type: DT_INT32
    }
  }
}
node {
  name: "train/gradients/loss/sigmoid_cross_entropy_loss/div_grad/RealDiv"
  op: "RealDiv"
  input: "train/gradients/loss/sigmoid_cross_entropy_loss/value_grad/tuple/control_dependency"
  input: "loss/sigmoid_cross_entropy_loss/Select"
  attr {
    key: "T"
    value {
      type: DT_FLOAT
    }
  }
}
node {
  name: "train/gradients/loss/sigmoid_cross_entropy_loss/div_grad/Sum"
  op: "Sum"
  input: "train/gradients/loss/sigmoid_cross_entropy_loss/div_grad/RealDiv"
  input: "train/gradients/loss/sigmoid_cross_entropy_loss/div_grad/BroadcastGradientArgs"
  attr {
    key: "T"
    value {
      type: DT_FLOAT
    }
  }
  attr {
    key: "Tidx"
    value {
      type: DT_INT32
    }
  }
  attr {
    key: "keep_dims"
    value {
      b: false
    }
  }
}
node {
  name: "train/gradients/loss/sigmoid_cross_entropy_loss/div_grad/Reshape"
  op: "Reshape"
  input: "train/gradients/loss/sigmoid_cross_entropy_loss/div_grad/Sum"
  input: "train/gradients/loss/sigmoid_cross_entropy_loss/div_grad/Shape"
  attr {
    key: "T"
    value {
      type: DT_FLOAT
    }
  }
  attr {
    key: "Tshape"
    value {
      type: DT_INT32
    }
  }
}
node {
  name: "train/gradients/loss/sigmoid_cross_entropy_loss/div_grad/Neg"
  op: "Neg"
  input: "loss/sigmoid_cross_entropy_loss/Sum_1"
  attr {
    key: "T"
    value {
      type: DT_FLOAT
    }
  }
}
node {
  name: "train/gradients/loss/sigmoid_cross_entropy_loss/div_grad/RealDiv_1"
  op: "RealDiv"
  input: "train/gradients/loss/sigmoid_cross_entropy_loss/div_grad/Neg"
  input: "loss/sigmoid_cross_entropy_loss/Select"
  attr {
    key: "T"
    value {
      type: DT_FLOAT
    }
  }
}
node {
  name: "train/gradients/loss/sigmoid_cross_entropy_loss/div_grad/RealDiv_2"
  op: "RealDiv"
  input: "train/gradients/loss/sigmoid_cross_entropy_loss/div_grad/RealDiv_1"
  input: "loss/sigmoid_cross_entropy_loss/Select"
  attr {
    key: "T"
    value {
      type: DT_FLOAT
    }
  }
}
node {
  name: "train/gradients/loss/sigmoid_cross_entropy_loss/div_grad/mul"
  op: "Mul"
  input: "train/gradients/loss/sigmoid_cross_entropy_loss/value_grad/tuple/control_dependency"
  input: "train/gradients/loss/sigmoid_cross_entropy_loss/div_grad/RealDiv_2"
  attr {
    key: "T"
    value {
      type: DT_FLOAT
    }
  }
}
node {
  name: "train/gradients/loss/sigmoid_cross_entropy_loss/div_grad/Sum_1"
  op: "Sum"
  input: "train/gradients/loss/sigmoid_cross_entropy_loss/div_grad/mul"
  input: "train/gradients/loss/sigmoid_cross_entropy_loss/div_grad/BroadcastGradientArgs:1"
  attr {
    key: "T"
    value {
      type: DT_FLOAT
    }
  }
  attr {
    key: "Tidx"
    value {
      type: DT_INT32
    }
  }
  attr {
    key: "keep_dims"
    value {
      b: false
    }
  }
}
node {
  name: "train/gradients/loss/sigmoid_cross_entropy_loss/div_grad/Reshape_1"
  op: "Reshape"
  input: "train/gradients/loss/sigmoid_cross_entropy_loss/div_grad/Sum_1"
  input: "train/gradients/loss/sigmoid_cross_entropy_loss/div_grad/Shape_1"
  attr {
    key: "T"
    value {
      type: DT_FLOAT
    }
  }
  attr {
    key: "Tshape"
    value {
      type: DT_INT32
    }
  }
}
node {
  name: "train/gradients/loss/sigmoid_cross_entropy_loss/div_grad/tuple/group_deps"
  op: "NoOp"
  input: "^train/gradients/loss/sigmoid_cross_entropy_loss/div_grad/Reshape"
  input: "^train/gradients/loss/sigmoid_cross_entropy_loss/div_grad/Reshape_1"
}
node {
  name: "train/gradients/loss/sigmoid_cross_entropy_loss/div_grad/tuple/control_dependency"
  op: "Identity"
  input: "train/gradients/loss/sigmoid_cross_entropy_loss/div_grad/Reshape"
  input: "^train/gradients/loss/sigmoid_cross_entropy_loss/div_grad/tuple/group_deps"
  attr {
    key: "T"
    value {
      type: DT_FLOAT
    }
  }
  attr {
    key: "_class"
    value {
      list {
        s: "loc:@train/gradients/loss/sigmoid_cross_entropy_loss/div_grad/Reshape"
      }
    }
  }
}
node {
  name: "train/gradients/loss/sigmoid_cross_entropy_loss/div_grad/tuple/control_dependency_1"
  op: "Identity"
  input: "train/gradients/loss/sigmoid_cross_entropy_loss/div_grad/Reshape_1"
  input: "^train/gradients/loss/sigmoid_cross_entropy_loss/div_grad/tuple/group_deps"
  attr {
    key: "T"
    value {
      type: DT_FLOAT
    }
  }
  attr {
    key: "_class"
    value {
      list {
        s: "loc:@train/gradients/loss/sigmoid_cross_entropy_loss/div_grad/Reshape_1"
      }
    }
  }
}
node {
  name: "train/gradients/loss/sigmoid_cross_entropy_loss/Sum_1_grad/Reshape/shape"
  op: "Const"
  attr {
    key: "dtype"
    value {
      type: DT_INT32
    }
  }
  attr {
    key: "value"
    value {
      tensor {
        dtype: DT_INT32
        tensor_shape {
          dim {
          }
        }
      }
    }
  }
}
node {
  name: "train/gradients/loss/sigmoid_cross_entropy_loss/Sum_1_grad/Reshape"
  op: "Reshape"
  input: "train/gradients/loss/sigmoid_cross_entropy_loss/div_grad/tuple/control_dependency"
  input: "train/gradients/loss/sigmoid_cross_entropy_loss/Sum_1_grad/Reshape/shape"
  attr {
    key: "T"
    value {
      type: DT_FLOAT
    }
  }
  attr {
    key: "Tshape"
    value {
      type: DT_INT32
    }
  }
}
node {
  name: "train/gradients/loss/sigmoid_cross_entropy_loss/Sum_1_grad/Tile/multiples"
  op: "Const"
  attr {
    key: "dtype"
    value {
      type: DT_INT32
    }
  }
  attr {
    key: "value"
    value {
      tensor {
        dtype: DT_INT32
        tensor_shape {
          dim {
          }
        }
      }
    }
  }
}
node {
  name: "train/gradients/loss/sigmoid_cross_entropy_loss/Sum_1_grad/Tile"
  op: "Tile"
  input: "train/gradients/loss/sigmoid_cross_entropy_loss/Sum_1_grad/Reshape"
  input: "train/gradients/loss/sigmoid_cross_entropy_loss/Sum_1_grad/Tile/multiples"
  attr {
    key: "T"
    value {
      type: DT_FLOAT
    }
  }
  attr {
    key: "Tmultiples"
    value {
      type: DT_INT32
    }
  }
}
node {
  name: "train/gradients/loss/sigmoid_cross_entropy_loss/Sum_grad/Reshape/shape"
  op: "Const"
  attr {
    key: "dtype"
    value {
      type: DT_INT32
    }
  }
  attr {
    key: "value"
    value {
      tensor {
        dtype: DT_INT32
        tensor_shape {
          dim {
            size: 2
          }
        }
        tensor_content: "\001\000\000\000\001\000\000\000"
      }
    }
  }
}
node {
  name: "train/gradients/loss/sigmoid_cross_entropy_loss/Sum_grad/Reshape"
  op: "Reshape"
  input: "train/gradients/loss/sigmoid_cross_entropy_loss/Sum_1_grad/Tile"
  input: "train/gradients/loss/sigmoid_cross_entropy_loss/Sum_grad/Reshape/shape"
  attr {
    key: "T"
    value {
      type: DT_FLOAT
    }
  }
  attr {
    key: "Tshape"
    value {
      type: DT_INT32
    }
  }
}
node {
  name: "train/gradients/loss/sigmoid_cross_entropy_loss/Sum_grad/Tile/multiples"
  op: "Const"
  attr {
    key: "dtype"
    value {
      type: DT_INT32
    }
  }
  attr {
    key: "value"
    value {
      tensor {
        dtype: DT_INT32
        tensor_shape {
          dim {
            size: 2
          }
        }
        tensor_content: "\310\000\000\000\334\005\000\000"
      }
    }
  }
}
node {
  name: "train/gradients/loss/sigmoid_cross_entropy_loss/Sum_grad/Tile"
  op: "Tile"
  input: "train/gradients/loss/sigmoid_cross_entropy_loss/Sum_grad/Reshape"
  input: "train/gradients/loss/sigmoid_cross_entropy_loss/Sum_grad/Tile/multiples"
  attr {
    key: "T"
    value {
      type: DT_FLOAT
    }
  }
  attr {
    key: "Tmultiples"
    value {
      type: DT_INT32
    }
  }
}
node {
  name: "train/gradients/loss/sigmoid_cross_entropy_loss/Mul_grad/Shape"
  op: "Const"
  attr {
    key: "dtype"
    value {
      type: DT_INT32
    }
  }
  attr {
    key: "value"
    value {
      tensor {
        dtype: DT_INT32
        tensor_shape {
          dim {
            size: 2
          }
        }
        tensor_content: "\310\000\000\000\334\005\000\000"
      }
    }
  }
}
node {
  name: "train/gradients/loss/sigmoid_cross_entropy_loss/Mul_grad/Shape_1"
  op: "Const"
  attr {
    key: "dtype"
    value {
      type: DT_INT32
    }
  }
  attr {
    key: "value"
    value {
      tensor {
        dtype: DT_INT32
        tensor_shape {
          dim {
          }
        }
      }
    }
  }
}
node {
  name: "train/gradients/loss/sigmoid_cross_entropy_loss/Mul_grad/BroadcastGradientArgs"
  op: "BroadcastGradientArgs"
  input: "train/gradients/loss/sigmoid_cross_entropy_loss/Mul_grad/Shape"
  input: "train/gradients/loss/sigmoid_cross_entropy_loss/Mul_grad/Shape_1"
  attr {
    key: "T"
    value {
      type: DT_INT32
    }
  }
}
node {
  name: "train/gradients/loss/sigmoid_cross_entropy_loss/Mul_grad/mul"
  op: "Mul"
  input: "train/gradients/loss/sigmoid_cross_entropy_loss/Sum_grad/Tile"
  input: "loss/sigmoid_cross_entropy_loss/ToFloat_1/x"
  attr {
    key: "T"
    value {
      type: DT_FLOAT
    }
  }
}
node {
  name: "train/gradients/loss/sigmoid_cross_entropy_loss/Mul_grad/Sum"
  op: "Sum"
  input: "train/gradients/loss/sigmoid_cross_entropy_loss/Mul_grad/mul"
  input: "train/gradients/loss/sigmoid_cross_entropy_loss/Mul_grad/BroadcastGradientArgs"
  attr {
    key: "T"
    value {
      type: DT_FLOAT
    }
  }
  attr {
    key: "Tidx"
    value {
      type: DT_INT32
    }
  }
  attr {
    key: "keep_dims"
    value {
      b: false
    }
  }
}
node {
  name: "train/gradients/loss/sigmoid_cross_entropy_loss/Mul_grad/Reshape"
  op: "Reshape"
  input: "train/gradients/loss/sigmoid_cross_entropy_loss/Mul_grad/Sum"
  input: "train/gradients/loss/sigmoid_cross_entropy_loss/Mul_grad/Shape"
  attr {
    key: "T"
    value {
      type: DT_FLOAT
    }
  }
  attr {
    key: "Tshape"
    value {
      type: DT_INT32
    }
  }
}
node {
  name: "train/gradients/loss/sigmoid_cross_entropy_loss/Mul_grad/mul_1"
  op: "Mul"
  input: "loss/sigmoid_cross_entropy_loss/xentropy"
  input: "train/gradients/loss/sigmoid_cross_entropy_loss/Sum_grad/Tile"
  attr {
    key: "T"
    value {
      type: DT_FLOAT
    }
  }
}
node {
  name: "train/gradients/loss/sigmoid_cross_entropy_loss/Mul_grad/Sum_1"
  op: "Sum"
  input: "train/gradients/loss/sigmoid_cross_entropy_loss/Mul_grad/mul_1"
  input: "train/gradients/loss/sigmoid_cross_entropy_loss/Mul_grad/BroadcastGradientArgs:1"
  attr {
    key: "T"
    value {
      type: DT_FLOAT
    }
  }
  attr {
    key: "Tidx"
    value {
      type: DT_INT32
    }
  }
  attr {
    key: "keep_dims"
    value {
      b: false
    }
  }
}
node {
  name: "train/gradients/loss/sigmoid_cross_entropy_loss/Mul_grad/Reshape_1"
  op: "Reshape"
  input: "train/gradients/loss/sigmoid_cross_entropy_loss/Mul_grad/Sum_1"
  input: "train/gradients/loss/sigmoid_cross_entropy_loss/Mul_grad/Shape_1"
  attr {
    key: "T"
    value {
      type: DT_FLOAT
    }
  }
  attr {
    key: "Tshape"
    value {
      type: DT_INT32
    }
  }
}
node {
  name: "train/gradients/loss/sigmoid_cross_entropy_loss/Mul_grad/tuple/group_deps"
  op: "NoOp"
  input: "^train/gradients/loss/sigmoid_cross_entropy_loss/Mul_grad/Reshape"
  input: "^train/gradients/loss/sigmoid_cross_entropy_loss/Mul_grad/Reshape_1"
}
node {
  name: "train/gradients/loss/sigmoid_cross_entropy_loss/Mul_grad/tuple/control_dependency"
  op: "Identity"
  input: "train/gradients/loss/sigmoid_cross_entropy_loss/Mul_grad/Reshape"
  input: "^train/gradients/loss/sigmoid_cross_entropy_loss/Mul_grad/tuple/group_deps"
  attr {
    key: "T"
    value {
      type: DT_FLOAT
    }
  }
  attr {
    key: "_class"
    value {
      list {
        s: "loc:@train/gradients/loss/sigmoid_cross_entropy_loss/Mul_grad/Reshape"
      }
    }
  }
}
node {
  name: "train/gradients/loss/sigmoid_cross_entropy_loss/Mul_grad/tuple/control_dependency_1"
  op: "Identity"
  input: "train/gradients/loss/sigmoid_cross_entropy_loss/Mul_grad/Reshape_1"
  input: "^train/gradients/loss/sigmoid_cross_entropy_loss/Mul_grad/tuple/group_deps"
  attr {
    key: "T"
    value {
      type: DT_FLOAT
    }
  }
  attr {
    key: "_class"
    value {
      list {
        s: "loc:@train/gradients/loss/sigmoid_cross_entropy_loss/Mul_grad/Reshape_1"
      }
    }
  }
}
node {
  name: "train/gradients/loss/sigmoid_cross_entropy_loss/xentropy_grad/Shape"
  op: "Const"
  attr {
    key: "dtype"
    value {
      type: DT_INT32
    }
  }
  attr {
    key: "value"
    value {
      tensor {
        dtype: DT_INT32
        tensor_shape {
          dim {
            size: 2
          }
        }
        tensor_content: "\310\000\000\000\334\005\000\000"
      }
    }
  }
}
node {
  name: "train/gradients/loss/sigmoid_cross_entropy_loss/xentropy_grad/Shape_1"
  op: "Shape"
  input: "loss/sigmoid_cross_entropy_loss/xentropy/Log1p"
  attr {
    key: "T"
    value {
      type: DT_FLOAT
    }
  }
  attr {
    key: "out_type"
    value {
      type: DT_INT32
    }
  }
}
node {
  name: "train/gradients/loss/sigmoid_cross_entropy_loss/xentropy_grad/BroadcastGradientArgs"
  op: "BroadcastGradientArgs"
  input: "train/gradients/loss/sigmoid_cross_entropy_loss/xentropy_grad/Shape"
  input: "train/gradients/loss/sigmoid_cross_entropy_loss/xentropy_grad/Shape_1"
  attr {
    key: "T"
    value {
      type: DT_INT32
    }
  }
}
node {
  name: "train/gradients/loss/sigmoid_cross_entropy_loss/xentropy_grad/Sum"
  op: "Sum"
  input: "train/gradients/loss/sigmoid_cross_entropy_loss/Mul_grad/tuple/control_dependency"
  input: "train/gradients/loss/sigmoid_cross_entropy_loss/xentropy_grad/BroadcastGradientArgs"
  attr {
    key: "T"
    value {
      type: DT_FLOAT
    }
  }
  attr {
    key: "Tidx"
    value {
      type: DT_INT32
    }
  }
  attr {
    key: "keep_dims"
    value {
      b: false
    }
  }
}
node {
  name: "train/gradients/loss/sigmoid_cross_entropy_loss/xentropy_grad/Reshape"
  op: "Reshape"
  input: "train/gradients/loss/sigmoid_cross_entropy_loss/xentropy_grad/Sum"
  input: "train/gradients/loss/sigmoid_cross_entropy_loss/xentropy_grad/Shape"
  attr {
    key: "T"
    value {
      type: DT_FLOAT
    }
  }
  attr {
    key: "Tshape"
    value {
      type: DT_INT32
    }
  }
}
node {
  name: "train/gradients/loss/sigmoid_cross_entropy_loss/xentropy_grad/Sum_1"
  op: "Sum"
  input: "train/gradients/loss/sigmoid_cross_entropy_loss/Mul_grad/tuple/control_dependency"
  input: "train/gradients/loss/sigmoid_cross_entropy_loss/xentropy_grad/BroadcastGradientArgs:1"
  attr {
    key: "T"
    value {
      type: DT_FLOAT
    }
  }
  attr {
    key: "Tidx"
    value {
      type: DT_INT32
    }
  }
  attr {
    key: "keep_dims"
    value {
      b: false
    }
  }
}
node {
  name: "train/gradients/loss/sigmoid_cross_entropy_loss/xentropy_grad/Reshape_1"
  op: "Reshape"
  input: "train/gradients/loss/sigmoid_cross_entropy_loss/xentropy_grad/Sum_1"
  input: "train/gradients/loss/sigmoid_cross_entropy_loss/xentropy_grad/Shape_1"
  attr {
    key: "T"
    value {
      type: DT_FLOAT
    }
  }
  attr {
    key: "Tshape"
    value {
      type: DT_INT32
    }
  }
}
node {
  name: "train/gradients/loss/sigmoid_cross_entropy_loss/xentropy_grad/tuple/group_deps"
  op: "NoOp"
  input: "^train/gradients/loss/sigmoid_cross_entropy_loss/xentropy_grad/Reshape"
  input: "^train/gradients/loss/sigmoid_cross_entropy_loss/xentropy_grad/Reshape_1"
}
node {
  name: "train/gradients/loss/sigmoid_cross_entropy_loss/xentropy_grad/tuple/control_dependency"
  op: "Identity"
  input: "train/gradients/loss/sigmoid_cross_entropy_loss/xentropy_grad/Reshape"
  input: "^train/gradients/loss/sigmoid_cross_entropy_loss/xentropy_grad/tuple/group_deps"
  attr {
    key: "T"
    value {
      type: DT_FLOAT
    }
  }
  attr {
    key: "_class"
    value {
      list {
        s: "loc:@train/gradients/loss/sigmoid_cross_entropy_loss/xentropy_grad/Reshape"
      }
    }
  }
}
node {
  name: "train/gradients/loss/sigmoid_cross_entropy_loss/xentropy_grad/tuple/control_dependency_1"
  op: "Identity"
  input: "train/gradients/loss/sigmoid_cross_entropy_loss/xentropy_grad/Reshape_1"
  input: "^train/gradients/loss/sigmoid_cross_entropy_loss/xentropy_grad/tuple/group_deps"
  attr {
    key: "T"
    value {
      type: DT_FLOAT
    }
  }
  attr {
    key: "_class"
    value {
      list {
        s: "loc:@train/gradients/loss/sigmoid_cross_entropy_loss/xentropy_grad/Reshape_1"
      }
    }
  }
}
node {
  name: "train/gradients/loss/sigmoid_cross_entropy_loss/xentropy/sub_grad/Shape"
  op: "Shape"
  input: "loss/sigmoid_cross_entropy_loss/xentropy/Select"
  attr {
    key: "T"
    value {
      type: DT_FLOAT
    }
  }
  attr {
    key: "out_type"
    value {
      type: DT_INT32
    }
  }
}
node {
  name: "train/gradients/loss/sigmoid_cross_entropy_loss/xentropy/sub_grad/Shape_1"
  op: "Const"
  attr {
    key: "dtype"
    value {
      type: DT_INT32
    }
  }
  attr {
    key: "value"
    value {
      tensor {
        dtype: DT_INT32
        tensor_shape {
          dim {
            size: 2
          }
        }
        tensor_content: "\310\000\000\000\334\005\000\000"
      }
    }
  }
}
node {
  name: "train/gradients/loss/sigmoid_cross_entropy_loss/xentropy/sub_grad/BroadcastGradientArgs"
  op: "BroadcastGradientArgs"
  input: "train/gradients/loss/sigmoid_cross_entropy_loss/xentropy/sub_grad/Shape"
  input: "train/gradients/loss/sigmoid_cross_entropy_loss/xentropy/sub_grad/Shape_1"
  attr {
    key: "T"
    value {
      type: DT_INT32
    }
  }
}
node {
  name: "train/gradients/loss/sigmoid_cross_entropy_loss/xentropy/sub_grad/Sum"
  op: "Sum"
  input: "train/gradients/loss/sigmoid_cross_entropy_loss/xentropy_grad/tuple/control_dependency"
  input: "train/gradients/loss/sigmoid_cross_entropy_loss/xentropy/sub_grad/BroadcastGradientArgs"
  attr {
    key: "T"
    value {
      type: DT_FLOAT
    }
  }
  attr {
    key: "Tidx"
    value {
      type: DT_INT32
    }
  }
  attr {
    key: "keep_dims"
    value {
      b: false
    }
  }
}
node {
  name: "train/gradients/loss/sigmoid_cross_entropy_loss/xentropy/sub_grad/Reshape"
  op: "Reshape"
  input: "train/gradients/loss/sigmoid_cross_entropy_loss/xentropy/sub_grad/Sum"
  input: "train/gradients/loss/sigmoid_cross_entropy_loss/xentropy/sub_grad/Shape"
  attr {
    key: "T"
    value {
      type: DT_FLOAT
    }
  }
  attr {
    key: "Tshape"
    value {
      type: DT_INT32
    }
  }
}
node {
  name: "train/gradients/loss/sigmoid_cross_entropy_loss/xentropy/sub_grad/Sum_1"
  op: "Sum"
  input: "train/gradients/loss/sigmoid_cross_entropy_loss/xentropy_grad/tuple/control_dependency"
  input: "train/gradients/loss/sigmoid_cross_entropy_loss/xentropy/sub_grad/BroadcastGradientArgs:1"
  attr {
    key: "T"
    value {
      type: DT_FLOAT
    }
  }
  attr {
    key: "Tidx"
    value {
      type: DT_INT32
    }
  }
  attr {
    key: "keep_dims"
    value {
      b: false
    }
  }
}
node {
  name: "train/gradients/loss/sigmoid_cross_entropy_loss/xentropy/sub_grad/Neg"
  op: "Neg"
  input: "train/gradients/loss/sigmoid_cross_entropy_loss/xentropy/sub_grad/Sum_1"
  attr {
    key: "T"
    value {
      type: DT_FLOAT
    }
  }
}
node {
  name: "train/gradients/loss/sigmoid_cross_entropy_loss/xentropy/sub_grad/Reshape_1"
  op: "Reshape"
  input: "train/gradients/loss/sigmoid_cross_entropy_loss/xentropy/sub_grad/Neg"
  input: "train/gradients/loss/sigmoid_cross_entropy_loss/xentropy/sub_grad/Shape_1"
  attr {
    key: "T"
    value {
      type: DT_FLOAT
    }
  }
  attr {
    key: "Tshape"
    value {
      type: DT_INT32
    }
  }
}
node {
  name: "train/gradients/loss/sigmoid_cross_entropy_loss/xentropy/sub_grad/tuple/group_deps"
  op: "NoOp"
  input: "^train/gradients/loss/sigmoid_cross_entropy_loss/xentropy/sub_grad/Reshape"
  input: "^train/gradients/loss/sigmoid_cross_entropy_loss/xentropy/sub_grad/Reshape_1"
}
node {
  name: "train/gradients/loss/sigmoid_cross_entropy_loss/xentropy/sub_grad/tuple/control_dependency"
  op: "Identity"
  input: "train/gradients/loss/sigmoid_cross_entropy_loss/xentropy/sub_grad/Reshape"
  input: "^train/gradients/loss/sigmoid_cross_entropy_loss/xentropy/sub_grad/tuple/group_deps"
  attr {
    key: "T"
    value {
      type: DT_FLOAT
    }
  }
  attr {
    key: "_class"
    value {
      list {
        s: "loc:@train/gradients/loss/sigmoid_cross_entropy_loss/xentropy/sub_grad/Reshape"
      }
    }
  }
}
node {
  name: "train/gradients/loss/sigmoid_cross_entropy_loss/xentropy/sub_grad/tuple/control_dependency_1"
  op: "Identity"
  input: "train/gradients/loss/sigmoid_cross_entropy_loss/xentropy/sub_grad/Reshape_1"
  input: "^train/gradients/loss/sigmoid_cross_entropy_loss/xentropy/sub_grad/tuple/group_deps"
  attr {
    key: "T"
    value {
      type: DT_FLOAT
    }
  }
  attr {
    key: "_class"
    value {
      list {
        s: "loc:@train/gradients/loss/sigmoid_cross_entropy_loss/xentropy/sub_grad/Reshape_1"
      }
    }
  }
}
node {
  name: "train/gradients/loss/sigmoid_cross_entropy_loss/xentropy/Log1p_grad/add/x"
  op: "Const"
  input: "^train/gradients/loss/sigmoid_cross_entropy_loss/xentropy_grad/tuple/control_dependency_1"
  attr {
    key: "dtype"
    value {
      type: DT_FLOAT
    }
  }
  attr {
    key: "value"
    value {
      tensor {
        dtype: DT_FLOAT
        tensor_shape {
        }
        float_val: 1.0
      }
    }
  }
}
node {
  name: "train/gradients/loss/sigmoid_cross_entropy_loss/xentropy/Log1p_grad/add"
  op: "Add"
  input: "train/gradients/loss/sigmoid_cross_entropy_loss/xentropy/Log1p_grad/add/x"
  input: "loss/sigmoid_cross_entropy_loss/xentropy/Exp"
  attr {
    key: "T"
    value {
      type: DT_FLOAT
    }
  }
}
node {
  name: "train/gradients/loss/sigmoid_cross_entropy_loss/xentropy/Log1p_grad/Reciprocal"
  op: "Reciprocal"
  input: "train/gradients/loss/sigmoid_cross_entropy_loss/xentropy/Log1p_grad/add"
  attr {
    key: "T"
    value {
      type: DT_FLOAT
    }
  }
}
node {
  name: "train/gradients/loss/sigmoid_cross_entropy_loss/xentropy/Log1p_grad/mul"
  op: "Mul"
  input: "train/gradients/loss/sigmoid_cross_entropy_loss/xentropy_grad/tuple/control_dependency_1"
  input: "train/gradients/loss/sigmoid_cross_entropy_loss/xentropy/Log1p_grad/Reciprocal"
  attr {
    key: "T"
    value {
      type: DT_FLOAT
    }
  }
}
node {
  name: "train/gradients/loss/sigmoid_cross_entropy_loss/xentropy/Select_grad/zeros_like"
  op: "ZerosLike"
  input: "dense_1/Sigmoid"
  attr {
    key: "T"
    value {
      type: DT_FLOAT
    }
  }
}
node {
  name: "train/gradients/loss/sigmoid_cross_entropy_loss/xentropy/Select_grad/Select"
  op: "Select"
  input: "loss/sigmoid_cross_entropy_loss/xentropy/GreaterEqual"
  input: "train/gradients/loss/sigmoid_cross_entropy_loss/xentropy/sub_grad/tuple/control_dependency"
  input: "train/gradients/loss/sigmoid_cross_entropy_loss/xentropy/Select_grad/zeros_like"
  attr {
    key: "T"
    value {
      type: DT_FLOAT
    }
  }
}
node {
  name: "train/gradients/loss/sigmoid_cross_entropy_loss/xentropy/Select_grad/Select_1"
  op: "Select"
  input: "loss/sigmoid_cross_entropy_loss/xentropy/GreaterEqual"
  input: "train/gradients/loss/sigmoid_cross_entropy_loss/xentropy/Select_grad/zeros_like"
  input: "train/gradients/loss/sigmoid_cross_entropy_loss/xentropy/sub_grad/tuple/control_dependency"
  attr {
    key: "T"
    value {
      type: DT_FLOAT
    }
  }
}
node {
  name: "train/gradients/loss/sigmoid_cross_entropy_loss/xentropy/Select_grad/tuple/group_deps"
  op: "NoOp"
  input: "^train/gradients/loss/sigmoid_cross_entropy_loss/xentropy/Select_grad/Select"
  input: "^train/gradients/loss/sigmoid_cross_entropy_loss/xentropy/Select_grad/Select_1"
}
node {
  name: "train/gradients/loss/sigmoid_cross_entropy_loss/xentropy/Select_grad/tuple/control_dependency"
  op: "Identity"
  input: "train/gradients/loss/sigmoid_cross_entropy_loss/xentropy/Select_grad/Select"
  input: "^train/gradients/loss/sigmoid_cross_entropy_loss/xentropy/Select_grad/tuple/group_deps"
  attr {
    key: "T"
    value {
      type: DT_FLOAT
    }
  }
  attr {
    key: "_class"
    value {
      list {
        s: "loc:@train/gradients/loss/sigmoid_cross_entropy_loss/xentropy/Select_grad/Select"
      }
    }
  }
}
node {
  name: "train/gradients/loss/sigmoid_cross_entropy_loss/xentropy/Select_grad/tuple/control_dependency_1"
  op: "Identity"
  input: "train/gradients/loss/sigmoid_cross_entropy_loss/xentropy/Select_grad/Select_1"
  input: "^train/gradients/loss/sigmoid_cross_entropy_loss/xentropy/Select_grad/tuple/group_deps"
  attr {
    key: "T"
    value {
      type: DT_FLOAT
    }
  }
  attr {
    key: "_class"
    value {
      list {
        s: "loc:@train/gradients/loss/sigmoid_cross_entropy_loss/xentropy/Select_grad/Select_1"
      }
    }
  }
}
node {
  name: "train/gradients/loss/sigmoid_cross_entropy_loss/xentropy/mul_grad/Shape"
  op: "Shape"
  input: "dense_1/Sigmoid"
  attr {
    key: "T"
    value {
      type: DT_FLOAT
    }
  }
  attr {
    key: "out_type"
    value {
      type: DT_INT32
    }
  }
}
node {
  name: "train/gradients/loss/sigmoid_cross_entropy_loss/xentropy/mul_grad/Shape_1"
  op: "Const"
  attr {
    key: "dtype"
    value {
      type: DT_INT32
    }
  }
  attr {
    key: "value"
    value {
      tensor {
        dtype: DT_INT32
        tensor_shape {
          dim {
            size: 2
          }
        }
        tensor_content: "\310\000\000\000\334\005\000\000"
      }
    }
  }
}
node {
  name: "train/gradients/loss/sigmoid_cross_entropy_loss/xentropy/mul_grad/BroadcastGradientArgs"
  op: "BroadcastGradientArgs"
  input: "train/gradients/loss/sigmoid_cross_entropy_loss/xentropy/mul_grad/Shape"
  input: "train/gradients/loss/sigmoid_cross_entropy_loss/xentropy/mul_grad/Shape_1"
  attr {
    key: "T"
    value {
      type: DT_INT32
    }
  }
}
node {
  name: "train/gradients/loss/sigmoid_cross_entropy_loss/xentropy/mul_grad/mul"
  op: "Mul"
  input: "train/gradients/loss/sigmoid_cross_entropy_loss/xentropy/sub_grad/tuple/control_dependency_1"
  input: "ground_truth_input"
  attr {
    key: "T"
    value {
      type: DT_FLOAT
    }
  }
}
node {
  name: "train/gradients/loss/sigmoid_cross_entropy_loss/xentropy/mul_grad/Sum"
  op: "Sum"
  input: "train/gradients/loss/sigmoid_cross_entropy_loss/xentropy/mul_grad/mul"
  input: "train/gradients/loss/sigmoid_cross_entropy_loss/xentropy/mul_grad/BroadcastGradientArgs"
  attr {
    key: "T"
    value {
      type: DT_FLOAT
    }
  }
  attr {
    key: "Tidx"
    value {
      type: DT_INT32
    }
  }
  attr {
    key: "keep_dims"
    value {
      b: false
    }
  }
}
node {
  name: "train/gradients/loss/sigmoid_cross_entropy_loss/xentropy/mul_grad/Reshape"
  op: "Reshape"
  input: "train/gradients/loss/sigmoid_cross_entropy_loss/xentropy/mul_grad/Sum"
  input: "train/gradients/loss/sigmoid_cross_entropy_loss/xentropy/mul_grad/Shape"
  attr {
    key: "T"
    value {
      type: DT_FLOAT
    }
  }
  attr {
    key: "Tshape"
    value {
      type: DT_INT32
    }
  }
}
node {
  name: "train/gradients/loss/sigmoid_cross_entropy_loss/xentropy/mul_grad/mul_1"
  op: "Mul"
  input: "dense_1/Sigmoid"
  input: "train/gradients/loss/sigmoid_cross_entropy_loss/xentropy/sub_grad/tuple/control_dependency_1"
  attr {
    key: "T"
    value {
      type: DT_FLOAT
    }
  }
}
node {
  name: "train/gradients/loss/sigmoid_cross_entropy_loss/xentropy/mul_grad/Sum_1"
  op: "Sum"
  input: "train/gradients/loss/sigmoid_cross_entropy_loss/xentropy/mul_grad/mul_1"
  input: "train/gradients/loss/sigmoid_cross_entropy_loss/xentropy/mul_grad/BroadcastGradientArgs:1"
  attr {
    key: "T"
    value {
      type: DT_FLOAT
    }
  }
  attr {
    key: "Tidx"
    value {
      type: DT_INT32
    }
  }
  attr {
    key: "keep_dims"
    value {
      b: false
    }
  }
}
node {
  name: "train/gradients/loss/sigmoid_cross_entropy_loss/xentropy/mul_grad/Reshape_1"
  op: "Reshape"
  input: "train/gradients/loss/sigmoid_cross_entropy_loss/xentropy/mul_grad/Sum_1"
  input: "train/gradients/loss/sigmoid_cross_entropy_loss/xentropy/mul_grad/Shape_1"
  attr {
    key: "T"
    value {
      type: DT_FLOAT
    }
  }
  attr {
    key: "Tshape"
    value {
      type: DT_INT32
    }
  }
}
node {
  name: "train/gradients/loss/sigmoid_cross_entropy_loss/xentropy/mul_grad/tuple/group_deps"
  op: "NoOp"
  input: "^train/gradients/loss/sigmoid_cross_entropy_loss/xentropy/mul_grad/Reshape"
  input: "^train/gradients/loss/sigmoid_cross_entropy_loss/xentropy/mul_grad/Reshape_1"
}
node {
  name: "train/gradients/loss/sigmoid_cross_entropy_loss/xentropy/mul_grad/tuple/control_dependency"
  op: "Identity"
  input: "train/gradients/loss/sigmoid_cross_entropy_loss/xentropy/mul_grad/Reshape"
  input: "^train/gradients/loss/sigmoid_cross_entropy_loss/xentropy/mul_grad/tuple/group_deps"
  attr {
    key: "T"
    value {
      type: DT_FLOAT
    }
  }
  attr {
    key: "_class"
    value {
      list {
        s: "loc:@train/gradients/loss/sigmoid_cross_entropy_loss/xentropy/mul_grad/Reshape"
      }
    }
  }
}
node {
  name: "train/gradients/loss/sigmoid_cross_entropy_loss/xentropy/mul_grad/tuple/control_dependency_1"
  op: "Identity"
  input: "train/gradients/loss/sigmoid_cross_entropy_loss/xentropy/mul_grad/Reshape_1"
  input: "^train/gradients/loss/sigmoid_cross_entropy_loss/xentropy/mul_grad/tuple/group_deps"
  attr {
    key: "T"
    value {
      type: DT_FLOAT
    }
  }
  attr {
    key: "_class"
    value {
      list {
        s: "loc:@train/gradients/loss/sigmoid_cross_entropy_loss/xentropy/mul_grad/Reshape_1"
      }
    }
  }
}
node {
  name: "train/gradients/loss/sigmoid_cross_entropy_loss/xentropy/Exp_grad/mul"
  op: "Mul"
  input: "train/gradients/loss/sigmoid_cross_entropy_loss/xentropy/Log1p_grad/mul"
  input: "loss/sigmoid_cross_entropy_loss/xentropy/Exp"
  attr {
    key: "T"
    value {
      type: DT_FLOAT
    }
  }
}
node {
  name: "train/gradients/loss/sigmoid_cross_entropy_loss/xentropy/Select_1_grad/zeros_like"
  op: "ZerosLike"
  input: "loss/sigmoid_cross_entropy_loss/xentropy/Neg"
  attr {
    key: "T"
    value {
      type: DT_FLOAT
    }
  }
}
node {
  name: "train/gradients/loss/sigmoid_cross_entropy_loss/xentropy/Select_1_grad/Select"
  op: "Select"
  input: "loss/sigmoid_cross_entropy_loss/xentropy/GreaterEqual"
  input: "train/gradients/loss/sigmoid_cross_entropy_loss/xentropy/Exp_grad/mul"
  input: "train/gradients/loss/sigmoid_cross_entropy_loss/xentropy/Select_1_grad/zeros_like"
  attr {
    key: "T"
    value {
      type: DT_FLOAT
    }
  }
}
node {
  name: "train/gradients/loss/sigmoid_cross_entropy_loss/xentropy/Select_1_grad/Select_1"
  op: "Select"
  input: "loss/sigmoid_cross_entropy_loss/xentropy/GreaterEqual"
  input: "train/gradients/loss/sigmoid_cross_entropy_loss/xentropy/Select_1_grad/zeros_like"
  input: "train/gradients/loss/sigmoid_cross_entropy_loss/xentropy/Exp_grad/mul"
  attr {
    key: "T"
    value {
      type: DT_FLOAT
    }
  }
}
node {
  name: "train/gradients/loss/sigmoid_cross_entropy_loss/xentropy/Select_1_grad/tuple/group_deps"
  op: "NoOp"
  input: "^train/gradients/loss/sigmoid_cross_entropy_loss/xentropy/Select_1_grad/Select"
  input: "^train/gradients/loss/sigmoid_cross_entropy_loss/xentropy/Select_1_grad/Select_1"
}
node {
  name: "train/gradients/loss/sigmoid_cross_entropy_loss/xentropy/Select_1_grad/tuple/control_dependency"
  op: "Identity"
  input: "train/gradients/loss/sigmoid_cross_entropy_loss/xentropy/Select_1_grad/Select"
  input: "^train/gradients/loss/sigmoid_cross_entropy_loss/xentropy/Select_1_grad/tuple/group_deps"
  attr {
    key: "T"
    value {
      type: DT_FLOAT
    }
  }
  attr {
    key: "_class"
    value {
      list {
        s: "loc:@train/gradients/loss/sigmoid_cross_entropy_loss/xentropy/Select_1_grad/Select"
      }
    }
  }
}
node {
  name: "train/gradients/loss/sigmoid_cross_entropy_loss/xentropy/Select_1_grad/tuple/control_dependency_1"
  op: "Identity"
  input: "train/gradients/loss/sigmoid_cross_entropy_loss/xentropy/Select_1_grad/Select_1"
  input: "^train/gradients/loss/sigmoid_cross_entropy_loss/xentropy/Select_1_grad/tuple/group_deps"
  attr {
    key: "T"
    value {
      type: DT_FLOAT
    }
  }
  attr {
    key: "_class"
    value {
      list {
        s: "loc:@train/gradients/loss/sigmoid_cross_entropy_loss/xentropy/Select_1_grad/Select_1"
      }
    }
  }
}
node {
  name: "train/gradients/loss/sigmoid_cross_entropy_loss/xentropy/Neg_grad/Neg"
  op: "Neg"
  input: "train/gradients/loss/sigmoid_cross_entropy_loss/xentropy/Select_1_grad/tuple/control_dependency"
  attr {
    key: "T"
    value {
      type: DT_FLOAT
    }
  }
}
node {
  name: "train/gradients/AddN"
  op: "AddN"
  input: "train/gradients/loss/sigmoid_cross_entropy_loss/xentropy/Select_grad/tuple/control_dependency"
  input: "train/gradients/loss/sigmoid_cross_entropy_loss/xentropy/mul_grad/tuple/control_dependency"
  input: "train/gradients/loss/sigmoid_cross_entropy_loss/xentropy/Select_1_grad/tuple/control_dependency_1"
  input: "train/gradients/loss/sigmoid_cross_entropy_loss/xentropy/Neg_grad/Neg"
  attr {
    key: "N"
    value {
      i: 4
    }
  }
  attr {
    key: "T"
    value {
      type: DT_FLOAT
    }
  }
  attr {
    key: "_class"
    value {
      list {
        s: "loc:@train/gradients/loss/sigmoid_cross_entropy_loss/xentropy/Select_grad/Select"
      }
    }
  }
}
node {
  name: "train/gradients/dense_1/Sigmoid_grad/SigmoidGrad"
  op: "SigmoidGrad"
  input: "dense_1/Sigmoid"
  input: "train/gradients/AddN"
  attr {
    key: "T"
    value {
      type: DT_FLOAT
    }
  }
}
node {
  name: "train/gradients/dense_1/BiasAdd_grad/BiasAddGrad"
  op: "BiasAddGrad"
  input: "train/gradients/dense_1/Sigmoid_grad/SigmoidGrad"
  attr {
    key: "T"
    value {
      type: DT_FLOAT
    }
  }
  attr {
    key: "data_format"
    value {
      s: "NHWC"
    }
  }
}
node {
  name: "train/gradients/dense_1/BiasAdd_grad/tuple/group_deps"
  op: "NoOp"
  input: "^train/gradients/dense_1/Sigmoid_grad/SigmoidGrad"
  input: "^train/gradients/dense_1/BiasAdd_grad/BiasAddGrad"
}
node {
  name: "train/gradients/dense_1/BiasAdd_grad/tuple/control_dependency"
  op: "Identity"
  input: "train/gradients/dense_1/Sigmoid_grad/SigmoidGrad"
  input: "^train/gradients/dense_1/BiasAdd_grad/tuple/group_deps"
  attr {
    key: "T"
    value {
      type: DT_FLOAT
    }
  }
  attr {
    key: "_class"
    value {
      list {
        s: "loc:@train/gradients/dense_1/Sigmoid_grad/SigmoidGrad"
      }
    }
  }
}
node {
  name: "train/gradients/dense_1/BiasAdd_grad/tuple/control_dependency_1"
  op: "Identity"
  input: "train/gradients/dense_1/BiasAdd_grad/BiasAddGrad"
  input: "^train/gradients/dense_1/BiasAdd_grad/tuple/group_deps"
  attr {
    key: "T"
    value {
      type: DT_FLOAT
    }
  }
  attr {
    key: "_class"
    value {
      list {
        s: "loc:@train/gradients/dense_1/BiasAdd_grad/BiasAddGrad"
      }
    }
  }
}
node {
  name: "train/gradients/dense_1/MatMul_grad/MatMul"
  op: "MatMul"
  input: "train/gradients/dense_1/BiasAdd_grad/tuple/control_dependency"
  input: "dense_1/kernel/read"
  attr {
    key: "T"
    value {
      type: DT_FLOAT
    }
  }
  attr {
    key: "transpose_a"
    value {
      b: false
    }
  }
  attr {
    key: "transpose_b"
    value {
      b: true
    }
  }
}
node {
  name: "train/gradients/dense_1/MatMul_grad/MatMul_1"
  op: "MatMul"
  input: "dense/Sigmoid"
  input: "train/gradients/dense_1/BiasAdd_grad/tuple/control_dependency"
  attr {
    key: "T"
    value {
      type: DT_FLOAT
    }
  }
  attr {
    key: "transpose_a"
    value {
      b: true
    }
  }
  attr {
    key: "transpose_b"
    value {
      b: false
    }
  }
}
node {
  name: "train/gradients/dense_1/MatMul_grad/tuple/group_deps"
  op: "NoOp"
  input: "^train/gradients/dense_1/MatMul_grad/MatMul"
  input: "^train/gradients/dense_1/MatMul_grad/MatMul_1"
}
node {
  name: "train/gradients/dense_1/MatMul_grad/tuple/control_dependency"
  op: "Identity"
  input: "train/gradients/dense_1/MatMul_grad/MatMul"
  input: "^train/gradients/dense_1/MatMul_grad/tuple/group_deps"
  attr {
    key: "T"
    value {
      type: DT_FLOAT
    }
  }
  attr {
    key: "_class"
    value {
      list {
        s: "loc:@train/gradients/dense_1/MatMul_grad/MatMul"
      }
    }
  }
}
node {
  name: "train/gradients/dense_1/MatMul_grad/tuple/control_dependency_1"
  op: "Identity"
  input: "train/gradients/dense_1/MatMul_grad/MatMul_1"
  input: "^train/gradients/dense_1/MatMul_grad/tuple/group_deps"
  attr {
    key: "T"
    value {
      type: DT_FLOAT
    }
  }
  attr {
    key: "_class"
    value {
      list {
        s: "loc:@train/gradients/dense_1/MatMul_grad/MatMul_1"
      }
    }
  }
}
node {
  name: "train/gradients/dense/Sigmoid_grad/SigmoidGrad"
  op: "SigmoidGrad"
  input: "dense/Sigmoid"
  input: "train/gradients/dense_1/MatMul_grad/tuple/control_dependency"
  attr {
    key: "T"
    value {
      type: DT_FLOAT
    }
  }
}
node {
  name: "train/gradients/dense/BiasAdd_grad/BiasAddGrad"
  op: "BiasAddGrad"
  input: "train/gradients/dense/Sigmoid_grad/SigmoidGrad"
  attr {
    key: "T"
    value {
      type: DT_FLOAT
    }
  }
  attr {
    key: "data_format"
    value {
      s: "NHWC"
    }
  }
}
node {
  name: "train/gradients/dense/BiasAdd_grad/tuple/group_deps"
  op: "NoOp"
  input: "^train/gradients/dense/Sigmoid_grad/SigmoidGrad"
  input: "^train/gradients/dense/BiasAdd_grad/BiasAddGrad"
}
node {
  name: "train/gradients/dense/BiasAdd_grad/tuple/control_dependency"
  op: "Identity"
  input: "train/gradients/dense/Sigmoid_grad/SigmoidGrad"
  input: "^train/gradients/dense/BiasAdd_grad/tuple/group_deps"
  attr {
    key: "T"
    value {
      type: DT_FLOAT
    }
  }
  attr {
    key: "_class"
    value {
      list {
        s: "loc:@train/gradients/dense/Sigmoid_grad/SigmoidGrad"
      }
    }
  }
}
node {
  name: "train/gradients/dense/BiasAdd_grad/tuple/control_dependency_1"
  op: "Identity"
  input: "train/gradients/dense/BiasAdd_grad/BiasAddGrad"
  input: "^train/gradients/dense/BiasAdd_grad/tuple/group_deps"
  attr {
    key: "T"
    value {
      type: DT_FLOAT
    }
  }
  attr {
    key: "_class"
    value {
      list {
        s: "loc:@train/gradients/dense/BiasAdd_grad/BiasAddGrad"
      }
    }
  }
}
node {
  name: "train/gradients/dense/MatMul_grad/MatMul"
  op: "MatMul"
  input: "train/gradients/dense/BiasAdd_grad/tuple/control_dependency"
  input: "dense/kernel/read"
  attr {
    key: "T"
    value {
      type: DT_FLOAT
    }
  }
  attr {
    key: "transpose_a"
    value {
      b: false
    }
  }
  attr {
    key: "transpose_b"
    value {
      b: true
    }
  }
}
node {
  name: "train/gradients/dense/MatMul_grad/MatMul_1"
  op: "MatMul"
  input: "Reshape"
  input: "train/gradients/dense/BiasAdd_grad/tuple/control_dependency"
  attr {
    key: "T"
    value {
      type: DT_FLOAT
    }
  }
  attr {
    key: "transpose_a"
    value {
      b: true
    }
  }
  attr {
    key: "transpose_b"
    value {
      b: false
    }
  }
}
node {
  name: "train/gradients/dense/MatMul_grad/tuple/group_deps"
  op: "NoOp"
  input: "^train/gradients/dense/MatMul_grad/MatMul"
  input: "^train/gradients/dense/MatMul_grad/MatMul_1"
}
node {
  name: "train/gradients/dense/MatMul_grad/tuple/control_dependency"
  op: "Identity"
  input: "train/gradients/dense/MatMul_grad/MatMul"
  input: "^train/gradients/dense/MatMul_grad/tuple/group_deps"
  attr {
    key: "T"
    value {
      type: DT_FLOAT
    }
  }
  attr {
    key: "_class"
    value {
      list {
        s: "loc:@train/gradients/dense/MatMul_grad/MatMul"
      }
    }
  }
}
node {
  name: "train/gradients/dense/MatMul_grad/tuple/control_dependency_1"
  op: "Identity"
  input: "train/gradients/dense/MatMul_grad/MatMul_1"
  input: "^train/gradients/dense/MatMul_grad/tuple/group_deps"
  attr {
    key: "T"
    value {
      type: DT_FLOAT
    }
  }
  attr {
    key: "_class"
    value {
      list {
        s: "loc:@train/gradients/dense/MatMul_grad/MatMul_1"
      }
    }
  }
}
node {
  name: "train/gradients/Reshape_grad/Shape"
  op: "Shape"
  input: "Relu_5"
  attr {
    key: "T"
    value {
      type: DT_FLOAT
    }
  }
  attr {
    key: "out_type"
    value {
      type: DT_INT32
    }
  }
}
node {
  name: "train/gradients/Reshape_grad/Reshape"
  op: "Reshape"
  input: "train/gradients/dense/MatMul_grad/tuple/control_dependency"
  input: "train/gradients/Reshape_grad/Shape"
  attr {
    key: "T"
    value {
      type: DT_FLOAT
    }
  }
  attr {
    key: "Tshape"
    value {
      type: DT_INT32
    }
  }
}
node {
  name: "train/gradients/Relu_5_grad/ReluGrad"
  op: "ReluGrad"
  input: "train/gradients/Reshape_grad/Reshape"
  input: "Relu_5"
  attr {
    key: "T"
    value {
      type: DT_FLOAT
    }
  }
}
node {
  name: "train/gradients/add_5_grad/Shape"
  op: "Shape"
  input: "Conv2D_5"
  attr {
    key: "T"
    value {
      type: DT_FLOAT
    }
  }
  attr {
    key: "out_type"
    value {
      type: DT_INT32
    }
  }
}
node {
  name: "train/gradients/add_5_grad/Shape_1"
  op: "Const"
  attr {
    key: "dtype"
    value {
      type: DT_INT32
    }
  }
  attr {
    key: "value"
    value {
      tensor {
        dtype: DT_INT32
        tensor_shape {
          dim {
            size: 1
          }
        }
        int_val: 32
      }
    }
  }
}
node {
  name: "train/gradients/add_5_grad/BroadcastGradientArgs"
  op: "BroadcastGradientArgs"
  input: "train/gradients/add_5_grad/Shape"
  input: "train/gradients/add_5_grad/Shape_1"
  attr {
    key: "T"
    value {
      type: DT_INT32
    }
  }
}
node {
  name: "train/gradients/add_5_grad/Sum"
  op: "Sum"
  input: "train/gradients/Relu_5_grad/ReluGrad"
  input: "train/gradients/add_5_grad/BroadcastGradientArgs"
  attr {
    key: "T"
    value {
      type: DT_FLOAT
    }
  }
  attr {
    key: "Tidx"
    value {
      type: DT_INT32
    }
  }
  attr {
    key: "keep_dims"
    value {
      b: false
    }
  }
}
node {
  name: "train/gradients/add_5_grad/Reshape"
  op: "Reshape"
  input: "train/gradients/add_5_grad/Sum"
  input: "train/gradients/add_5_grad/Shape"
  attr {
    key: "T"
    value {
      type: DT_FLOAT
    }
  }
  attr {
    key: "Tshape"
    value {
      type: DT_INT32
    }
  }
}
node {
  name: "train/gradients/add_5_grad/Sum_1"
  op: "Sum"
  input: "train/gradients/Relu_5_grad/ReluGrad"
  input: "train/gradients/add_5_grad/BroadcastGradientArgs:1"
  attr {
    key: "T"
    value {
      type: DT_FLOAT
    }
  }
  attr {
    key: "Tidx"
    value {
      type: DT_INT32
    }
  }
  attr {
    key: "keep_dims"
    value {
      b: false
    }
  }
}
node {
  name: "train/gradients/add_5_grad/Reshape_1"
  op: "Reshape"
  input: "train/gradients/add_5_grad/Sum_1"
  input: "train/gradients/add_5_grad/Shape_1"
  attr {
    key: "T"
    value {
      type: DT_FLOAT
    }
  }
  attr {
    key: "Tshape"
    value {
      type: DT_INT32
    }
  }
}
node {
  name: "train/gradients/add_5_grad/tuple/group_deps"
  op: "NoOp"
  input: "^train/gradients/add_5_grad/Reshape"
  input: "^train/gradients/add_5_grad/Reshape_1"
}
node {
  name: "train/gradients/add_5_grad/tuple/control_dependency"
  op: "Identity"
  input: "train/gradients/add_5_grad/Reshape"
  input: "^train/gradients/add_5_grad/tuple/group_deps"
  attr {
    key: "T"
    value {
      type: DT_FLOAT
    }
  }
  attr {
    key: "_class"
    value {
      list {
        s: "loc:@train/gradients/add_5_grad/Reshape"
      }
    }
  }
}
node {
  name: "train/gradients/add_5_grad/tuple/control_dependency_1"
  op: "Identity"
  input: "train/gradients/add_5_grad/Reshape_1"
  input: "^train/gradients/add_5_grad/tuple/group_deps"
  attr {
    key: "T"
    value {
      type: DT_FLOAT
    }
  }
  attr {
    key: "_class"
    value {
      list {
        s: "loc:@train/gradients/add_5_grad/Reshape_1"
      }
    }
  }
}
node {
  name: "train/gradients/Conv2D_5_grad/ShapeN"
  op: "ShapeN"
  input: "Relu_4"
  input: "Variable_10/read"
  attr {
    key: "N"
    value {
      i: 2
    }
  }
  attr {
    key: "T"
    value {
      type: DT_FLOAT
    }
  }
  attr {
    key: "out_type"
    value {
      type: DT_INT32
    }
  }
}
node {
  name: "train/gradients/Conv2D_5_grad/Const"
  op: "Const"
  attr {
    key: "dtype"
    value {
      type: DT_INT32
    }
  }
  attr {
    key: "value"
    value {
      tensor {
        dtype: DT_INT32
        tensor_shape {
          dim {
            size: 4
          }
        }
        tensor_content: "\003\000\000\000\003\000\000\000 \000\000\000 \000\000\000"
      }
    }
  }
}
node {
  name: "train/gradients/Conv2D_5_grad/Conv2DBackpropInput"
  op: "Conv2DBackpropInput"
  input: "train/gradients/Conv2D_5_grad/ShapeN"
  input: "Variable_10/read"
  input: "train/gradients/add_5_grad/tuple/control_dependency"
  attr {
    key: "T"
    value {
      type: DT_FLOAT
    }
  }
  attr {
    key: "data_format"
    value {
      s: "NHWC"
    }
  }
  attr {
    key: "dilations"
    value {
      list {
        i: 1
        i: 1
        i: 1
        i: 1
      }
    }
  }
  attr {
    key: "padding"
    value {
      s: "SAME"
    }
  }
  attr {
    key: "strides"
    value {
      list {
        i: 1
        i: 1
        i: 1
        i: 1
      }
    }
  }
  attr {
    key: "use_cudnn_on_gpu"
    value {
      b: true
    }
  }
}
node {
  name: "train/gradients/Conv2D_5_grad/Conv2DBackpropFilter"
  op: "Conv2DBackpropFilter"
  input: "Relu_4"
  input: "train/gradients/Conv2D_5_grad/Const"
  input: "train/gradients/add_5_grad/tuple/control_dependency"
  attr {
    key: "T"
    value {
      type: DT_FLOAT
    }
  }
  attr {
    key: "data_format"
    value {
      s: "NHWC"
    }
  }
  attr {
    key: "dilations"
    value {
      list {
        i: 1
        i: 1
        i: 1
        i: 1
      }
    }
  }
  attr {
    key: "padding"
    value {
      s: "SAME"
    }
  }
  attr {
    key: "strides"
    value {
      list {
        i: 1
        i: 1
        i: 1
        i: 1
      }
    }
  }
  attr {
    key: "use_cudnn_on_gpu"
    value {
      b: true
    }
  }
}
node {
  name: "train/gradients/Conv2D_5_grad/tuple/group_deps"
  op: "NoOp"
  input: "^train/gradients/Conv2D_5_grad/Conv2DBackpropInput"
  input: "^train/gradients/Conv2D_5_grad/Conv2DBackpropFilter"
}
node {
  name: "train/gradients/Conv2D_5_grad/tuple/control_dependency"
  op: "Identity"
  input: "train/gradients/Conv2D_5_grad/Conv2DBackpropInput"
  input: "^train/gradients/Conv2D_5_grad/tuple/group_deps"
  attr {
    key: "T"
    value {
      type: DT_FLOAT
    }
  }
  attr {
    key: "_class"
    value {
      list {
        s: "loc:@train/gradients/Conv2D_5_grad/Conv2DBackpropInput"
      }
    }
  }
}
node {
  name: "train/gradients/Conv2D_5_grad/tuple/control_dependency_1"
  op: "Identity"
  input: "train/gradients/Conv2D_5_grad/Conv2DBackpropFilter"
  input: "^train/gradients/Conv2D_5_grad/tuple/group_deps"
  attr {
    key: "T"
    value {
      type: DT_FLOAT
    }
  }
  attr {
    key: "_class"
    value {
      list {
        s: "loc:@train/gradients/Conv2D_5_grad/Conv2DBackpropFilter"
      }
    }
  }
}
node {
  name: "train/gradients/Relu_4_grad/ReluGrad"
  op: "ReluGrad"
  input: "train/gradients/Conv2D_5_grad/tuple/control_dependency"
  input: "Relu_4"
  attr {
    key: "T"
    value {
      type: DT_FLOAT
    }
  }
}
node {
  name: "train/gradients/add_4_grad/Shape"
  op: "Shape"
  input: "Conv2D_4"
  attr {
    key: "T"
    value {
      type: DT_FLOAT
    }
  }
  attr {
    key: "out_type"
    value {
      type: DT_INT32
    }
  }
}
node {
  name: "train/gradients/add_4_grad/Shape_1"
  op: "Const"
  attr {
    key: "dtype"
    value {
      type: DT_INT32
    }
  }
  attr {
    key: "value"
    value {
      tensor {
        dtype: DT_INT32
        tensor_shape {
          dim {
            size: 1
          }
        }
        int_val: 32
      }
    }
  }
}
node {
  name: "train/gradients/add_4_grad/BroadcastGradientArgs"
  op: "BroadcastGradientArgs"
  input: "train/gradients/add_4_grad/Shape"
  input: "train/gradients/add_4_grad/Shape_1"
  attr {
    key: "T"
    value {
      type: DT_INT32
    }
  }
}
node {
  name: "train/gradients/add_4_grad/Sum"
  op: "Sum"
  input: "train/gradients/Relu_4_grad/ReluGrad"
  input: "train/gradients/add_4_grad/BroadcastGradientArgs"
  attr {
    key: "T"
    value {
      type: DT_FLOAT
    }
  }
  attr {
    key: "Tidx"
    value {
      type: DT_INT32
    }
  }
  attr {
    key: "keep_dims"
    value {
      b: false
    }
  }
}
node {
  name: "train/gradients/add_4_grad/Reshape"
  op: "Reshape"
  input: "train/gradients/add_4_grad/Sum"
  input: "train/gradients/add_4_grad/Shape"
  attr {
    key: "T"
    value {
      type: DT_FLOAT
    }
  }
  attr {
    key: "Tshape"
    value {
      type: DT_INT32
    }
  }
}
node {
  name: "train/gradients/add_4_grad/Sum_1"
  op: "Sum"
  input: "train/gradients/Relu_4_grad/ReluGrad"
  input: "train/gradients/add_4_grad/BroadcastGradientArgs:1"
  attr {
    key: "T"
    value {
      type: DT_FLOAT
    }
  }
  attr {
    key: "Tidx"
    value {
      type: DT_INT32
    }
  }
  attr {
    key: "keep_dims"
    value {
      b: false
    }
  }
}
node {
  name: "train/gradients/add_4_grad/Reshape_1"
  op: "Reshape"
  input: "train/gradients/add_4_grad/Sum_1"
  input: "train/gradients/add_4_grad/Shape_1"
  attr {
    key: "T"
    value {
      type: DT_FLOAT
    }
  }
  attr {
    key: "Tshape"
    value {
      type: DT_INT32
    }
  }
}
node {
  name: "train/gradients/add_4_grad/tuple/group_deps"
  op: "NoOp"
  input: "^train/gradients/add_4_grad/Reshape"
  input: "^train/gradients/add_4_grad/Reshape_1"
}
node {
  name: "train/gradients/add_4_grad/tuple/control_dependency"
  op: "Identity"
  input: "train/gradients/add_4_grad/Reshape"
  input: "^train/gradients/add_4_grad/tuple/group_deps"
  attr {
    key: "T"
    value {
      type: DT_FLOAT
    }
  }
  attr {
    key: "_class"
    value {
      list {
        s: "loc:@train/gradients/add_4_grad/Reshape"
      }
    }
  }
}
node {
  name: "train/gradients/add_4_grad/tuple/control_dependency_1"
  op: "Identity"
  input: "train/gradients/add_4_grad/Reshape_1"
  input: "^train/gradients/add_4_grad/tuple/group_deps"
  attr {
    key: "T"
    value {
      type: DT_FLOAT
    }
  }
  attr {
    key: "_class"
    value {
      list {
        s: "loc:@train/gradients/add_4_grad/Reshape_1"
      }
    }
  }
}
node {
  name: "train/gradients/Conv2D_4_grad/ShapeN"
  op: "ShapeN"
  input: "Relu_3"
  input: "Variable_8/read"
  attr {
    key: "N"
    value {
      i: 2
    }
  }
  attr {
    key: "T"
    value {
      type: DT_FLOAT
    }
  }
  attr {
    key: "out_type"
    value {
      type: DT_INT32
    }
  }
}
node {
  name: "train/gradients/Conv2D_4_grad/Const"
  op: "Const"
  attr {
    key: "dtype"
    value {
      type: DT_INT32
    }
  }
  attr {
    key: "value"
    value {
      tensor {
        dtype: DT_INT32
        tensor_shape {
          dim {
            size: 4
          }
        }
        tensor_content: "\003\000\000\000\003\000\000\000 \000\000\000 \000\000\000"
      }
    }
  }
}
node {
  name: "train/gradients/Conv2D_4_grad/Conv2DBackpropInput"
  op: "Conv2DBackpropInput"
  input: "train/gradients/Conv2D_4_grad/ShapeN"
  input: "Variable_8/read"
  input: "train/gradients/add_4_grad/tuple/control_dependency"
  attr {
    key: "T"
    value {
      type: DT_FLOAT
    }
  }
  attr {
    key: "data_format"
    value {
      s: "NHWC"
    }
  }
  attr {
    key: "dilations"
    value {
      list {
        i: 1
        i: 1
        i: 1
        i: 1
      }
    }
  }
  attr {
    key: "padding"
    value {
      s: "SAME"
    }
  }
  attr {
    key: "strides"
    value {
      list {
        i: 1
        i: 1
        i: 1
        i: 1
      }
    }
  }
  attr {
    key: "use_cudnn_on_gpu"
    value {
      b: true
    }
  }
}
node {
  name: "train/gradients/Conv2D_4_grad/Conv2DBackpropFilter"
  op: "Conv2DBackpropFilter"
  input: "Relu_3"
  input: "train/gradients/Conv2D_4_grad/Const"
  input: "train/gradients/add_4_grad/tuple/control_dependency"
  attr {
    key: "T"
    value {
      type: DT_FLOAT
    }
  }
  attr {
    key: "data_format"
    value {
      s: "NHWC"
    }
  }
  attr {
    key: "dilations"
    value {
      list {
        i: 1
        i: 1
        i: 1
        i: 1
      }
    }
  }
  attr {
    key: "padding"
    value {
      s: "SAME"
    }
  }
  attr {
    key: "strides"
    value {
      list {
        i: 1
        i: 1
        i: 1
        i: 1
      }
    }
  }
  attr {
    key: "use_cudnn_on_gpu"
    value {
      b: true
    }
  }
}
node {
  name: "train/gradients/Conv2D_4_grad/tuple/group_deps"
  op: "NoOp"
  input: "^train/gradients/Conv2D_4_grad/Conv2DBackpropInput"
  input: "^train/gradients/Conv2D_4_grad/Conv2DBackpropFilter"
}
node {
  name: "train/gradients/Conv2D_4_grad/tuple/control_dependency"
  op: "Identity"
  input: "train/gradients/Conv2D_4_grad/Conv2DBackpropInput"
  input: "^train/gradients/Conv2D_4_grad/tuple/group_deps"
  attr {
    key: "T"
    value {
      type: DT_FLOAT
    }
  }
  attr {
    key: "_class"
    value {
      list {
        s: "loc:@train/gradients/Conv2D_4_grad/Conv2DBackpropInput"
      }
    }
  }
}
node {
  name: "train/gradients/Conv2D_4_grad/tuple/control_dependency_1"
  op: "Identity"
  input: "train/gradients/Conv2D_4_grad/Conv2DBackpropFilter"
  input: "^train/gradients/Conv2D_4_grad/tuple/group_deps"
  attr {
    key: "T"
    value {
      type: DT_FLOAT
    }
  }
  attr {
    key: "_class"
    value {
      list {
        s: "loc:@train/gradients/Conv2D_4_grad/Conv2DBackpropFilter"
      }
    }
  }
}
node {
  name: "train/gradients/Relu_3_grad/ReluGrad"
  op: "ReluGrad"
  input: "train/gradients/Conv2D_4_grad/tuple/control_dependency"
  input: "Relu_3"
  attr {
    key: "T"
    value {
      type: DT_FLOAT
    }
  }
}
node {
  name: "train/gradients/add_3_grad/Shape"
  op: "Shape"
  input: "Conv2D_3"
  attr {
    key: "T"
    value {
      type: DT_FLOAT
    }
  }
  attr {
    key: "out_type"
    value {
      type: DT_INT32
    }
  }
}
node {
  name: "train/gradients/add_3_grad/Shape_1"
  op: "Const"
  attr {
    key: "dtype"
    value {
      type: DT_INT32
    }
  }
  attr {
    key: "value"
    value {
      tensor {
        dtype: DT_INT32
        tensor_shape {
          dim {
            size: 1
          }
        }
        int_val: 32
      }
    }
  }
}
node {
  name: "train/gradients/add_3_grad/BroadcastGradientArgs"
  op: "BroadcastGradientArgs"
  input: "train/gradients/add_3_grad/Shape"
  input: "train/gradients/add_3_grad/Shape_1"
  attr {
    key: "T"
    value {
      type: DT_INT32
    }
  }
}
node {
  name: "train/gradients/add_3_grad/Sum"
  op: "Sum"
  input: "train/gradients/Relu_3_grad/ReluGrad"
  input: "train/gradients/add_3_grad/BroadcastGradientArgs"
  attr {
    key: "T"
    value {
      type: DT_FLOAT
    }
  }
  attr {
    key: "Tidx"
    value {
      type: DT_INT32
    }
  }
  attr {
    key: "keep_dims"
    value {
      b: false
    }
  }
}
node {
  name: "train/gradients/add_3_grad/Reshape"
  op: "Reshape"
  input: "train/gradients/add_3_grad/Sum"
  input: "train/gradients/add_3_grad/Shape"
  attr {
    key: "T"
    value {
      type: DT_FLOAT
    }
  }
  attr {
    key: "Tshape"
    value {
      type: DT_INT32
    }
  }
}
node {
  name: "train/gradients/add_3_grad/Sum_1"
  op: "Sum"
  input: "train/gradients/Relu_3_grad/ReluGrad"
  input: "train/gradients/add_3_grad/BroadcastGradientArgs:1"
  attr {
    key: "T"
    value {
      type: DT_FLOAT
    }
  }
  attr {
    key: "Tidx"
    value {
      type: DT_INT32
    }
  }
  attr {
    key: "keep_dims"
    value {
      b: false
    }
  }
}
node {
  name: "train/gradients/add_3_grad/Reshape_1"
  op: "Reshape"
  input: "train/gradients/add_3_grad/Sum_1"
  input: "train/gradients/add_3_grad/Shape_1"
  attr {
    key: "T"
    value {
      type: DT_FLOAT
    }
  }
  attr {
    key: "Tshape"
    value {
      type: DT_INT32
    }
  }
}
node {
  name: "train/gradients/add_3_grad/tuple/group_deps"
  op: "NoOp"
  input: "^train/gradients/add_3_grad/Reshape"
  input: "^train/gradients/add_3_grad/Reshape_1"
}
node {
  name: "train/gradients/add_3_grad/tuple/control_dependency"
  op: "Identity"
  input: "train/gradients/add_3_grad/Reshape"
  input: "^train/gradients/add_3_grad/tuple/group_deps"
  attr {
    key: "T"
    value {
      type: DT_FLOAT
    }
  }
  attr {
    key: "_class"
    value {
      list {
        s: "loc:@train/gradients/add_3_grad/Reshape"
      }
    }
  }
}
node {
  name: "train/gradients/add_3_grad/tuple/control_dependency_1"
  op: "Identity"
  input: "train/gradients/add_3_grad/Reshape_1"
  input: "^train/gradients/add_3_grad/tuple/group_deps"
  attr {
    key: "T"
    value {
      type: DT_FLOAT
    }
  }
  attr {
    key: "_class"
    value {
      list {
        s: "loc:@train/gradients/add_3_grad/Reshape_1"
      }
    }
  }
}
node {
  name: "train/gradients/Conv2D_3_grad/ShapeN"
  op: "ShapeN"
  input: "Relu_2"
  input: "Variable_6/read"
  attr {
    key: "N"
    value {
      i: 2
    }
  }
  attr {
    key: "T"
    value {
      type: DT_FLOAT
    }
  }
  attr {
    key: "out_type"
    value {
      type: DT_INT32
    }
  }
}
node {
  name: "train/gradients/Conv2D_3_grad/Const"
  op: "Const"
  attr {
    key: "dtype"
    value {
      type: DT_INT32
    }
  }
  attr {
    key: "value"
    value {
      tensor {
        dtype: DT_INT32
        tensor_shape {
          dim {
            size: 4
          }
        }
        tensor_content: "\003\000\000\000\003\000\000\000 \000\000\000 \000\000\000"
      }
    }
  }
}
node {
  name: "train/gradients/Conv2D_3_grad/Conv2DBackpropInput"
  op: "Conv2DBackpropInput"
  input: "train/gradients/Conv2D_3_grad/ShapeN"
  input: "Variable_6/read"
  input: "train/gradients/add_3_grad/tuple/control_dependency"
  attr {
    key: "T"
    value {
      type: DT_FLOAT
    }
  }
  attr {
    key: "data_format"
    value {
      s: "NHWC"
    }
  }
  attr {
    key: "dilations"
    value {
      list {
        i: 1
        i: 1
        i: 1
        i: 1
      }
    }
  }
  attr {
    key: "padding"
    value {
      s: "SAME"
    }
  }
  attr {
    key: "strides"
    value {
      list {
        i: 1
        i: 1
        i: 1
        i: 1
      }
    }
  }
  attr {
    key: "use_cudnn_on_gpu"
    value {
      b: true
    }
  }
}
node {
  name: "train/gradients/Conv2D_3_grad/Conv2DBackpropFilter"
  op: "Conv2DBackpropFilter"
  input: "Relu_2"
  input: "train/gradients/Conv2D_3_grad/Const"
  input: "train/gradients/add_3_grad/tuple/control_dependency"
  attr {
    key: "T"
    value {
      type: DT_FLOAT
    }
  }
  attr {
    key: "data_format"
    value {
      s: "NHWC"
    }
  }
  attr {
    key: "dilations"
    value {
      list {
        i: 1
        i: 1
        i: 1
        i: 1
      }
    }
  }
  attr {
    key: "padding"
    value {
      s: "SAME"
    }
  }
  attr {
    key: "strides"
    value {
      list {
        i: 1
        i: 1
        i: 1
        i: 1
      }
    }
  }
  attr {
    key: "use_cudnn_on_gpu"
    value {
      b: true
    }
  }
}
node {
  name: "train/gradients/Conv2D_3_grad/tuple/group_deps"
  op: "NoOp"
  input: "^train/gradients/Conv2D_3_grad/Conv2DBackpropInput"
  input: "^train/gradients/Conv2D_3_grad/Conv2DBackpropFilter"
}
node {
  name: "train/gradients/Conv2D_3_grad/tuple/control_dependency"
  op: "Identity"
  input: "train/gradients/Conv2D_3_grad/Conv2DBackpropInput"
  input: "^train/gradients/Conv2D_3_grad/tuple/group_deps"
  attr {
    key: "T"
    value {
      type: DT_FLOAT
    }
  }
  attr {
    key: "_class"
    value {
      list {
        s: "loc:@train/gradients/Conv2D_3_grad/Conv2DBackpropInput"
      }
    }
  }
}
node {
  name: "train/gradients/Conv2D_3_grad/tuple/control_dependency_1"
  op: "Identity"
  input: "train/gradients/Conv2D_3_grad/Conv2DBackpropFilter"
  input: "^train/gradients/Conv2D_3_grad/tuple/group_deps"
  attr {
    key: "T"
    value {
      type: DT_FLOAT
    }
  }
  attr {
    key: "_class"
    value {
      list {
        s: "loc:@train/gradients/Conv2D_3_grad/Conv2DBackpropFilter"
      }
    }
  }
}
node {
  name: "train/gradients/Relu_2_grad/ReluGrad"
  op: "ReluGrad"
  input: "train/gradients/Conv2D_3_grad/tuple/control_dependency"
  input: "Relu_2"
  attr {
    key: "T"
    value {
      type: DT_FLOAT
    }
  }
}
node {
  name: "train/gradients/add_2_grad/Shape"
  op: "Shape"
  input: "Conv2D_2"
  attr {
    key: "T"
    value {
      type: DT_FLOAT
    }
  }
  attr {
    key: "out_type"
    value {
      type: DT_INT32
    }
  }
}
node {
  name: "train/gradients/add_2_grad/Shape_1"
  op: "Const"
  attr {
    key: "dtype"
    value {
      type: DT_INT32
    }
  }
  attr {
    key: "value"
    value {
      tensor {
        dtype: DT_INT32
        tensor_shape {
          dim {
            size: 1
          }
        }
        int_val: 32
      }
    }
  }
}
node {
  name: "train/gradients/add_2_grad/BroadcastGradientArgs"
  op: "BroadcastGradientArgs"
  input: "train/gradients/add_2_grad/Shape"
  input: "train/gradients/add_2_grad/Shape_1"
  attr {
    key: "T"
    value {
      type: DT_INT32
    }
  }
}
node {
  name: "train/gradients/add_2_grad/Sum"
  op: "Sum"
  input: "train/gradients/Relu_2_grad/ReluGrad"
  input: "train/gradients/add_2_grad/BroadcastGradientArgs"
  attr {
    key: "T"
    value {
      type: DT_FLOAT
    }
  }
  attr {
    key: "Tidx"
    value {
      type: DT_INT32
    }
  }
  attr {
    key: "keep_dims"
    value {
      b: false
    }
  }
}
node {
  name: "train/gradients/add_2_grad/Reshape"
  op: "Reshape"
  input: "train/gradients/add_2_grad/Sum"
  input: "train/gradients/add_2_grad/Shape"
  attr {
    key: "T"
    value {
      type: DT_FLOAT
    }
  }
  attr {
    key: "Tshape"
    value {
      type: DT_INT32
    }
  }
}
node {
  name: "train/gradients/add_2_grad/Sum_1"
  op: "Sum"
  input: "train/gradients/Relu_2_grad/ReluGrad"
  input: "train/gradients/add_2_grad/BroadcastGradientArgs:1"
  attr {
    key: "T"
    value {
      type: DT_FLOAT
    }
  }
  attr {
    key: "Tidx"
    value {
      type: DT_INT32
    }
  }
  attr {
    key: "keep_dims"
    value {
      b: false
    }
  }
}
node {
  name: "train/gradients/add_2_grad/Reshape_1"
  op: "Reshape"
  input: "train/gradients/add_2_grad/Sum_1"
  input: "train/gradients/add_2_grad/Shape_1"
  attr {
    key: "T"
    value {
      type: DT_FLOAT
    }
  }
  attr {
    key: "Tshape"
    value {
      type: DT_INT32
    }
  }
}
node {
  name: "train/gradients/add_2_grad/tuple/group_deps"
  op: "NoOp"
  input: "^train/gradients/add_2_grad/Reshape"
  input: "^train/gradients/add_2_grad/Reshape_1"
}
node {
  name: "train/gradients/add_2_grad/tuple/control_dependency"
  op: "Identity"
  input: "train/gradients/add_2_grad/Reshape"
  input: "^train/gradients/add_2_grad/tuple/group_deps"
  attr {
    key: "T"
    value {
      type: DT_FLOAT
    }
  }
  attr {
    key: "_class"
    value {
      list {
        s: "loc:@train/gradients/add_2_grad/Reshape"
      }
    }
  }
}
node {
  name: "train/gradients/add_2_grad/tuple/control_dependency_1"
  op: "Identity"
  input: "train/gradients/add_2_grad/Reshape_1"
  input: "^train/gradients/add_2_grad/tuple/group_deps"
  attr {
    key: "T"
    value {
      type: DT_FLOAT
    }
  }
  attr {
    key: "_class"
    value {
      list {
        s: "loc:@train/gradients/add_2_grad/Reshape_1"
      }
    }
  }
}
node {
  name: "train/gradients/Conv2D_2_grad/ShapeN"
  op: "ShapeN"
  input: "MaxPool_1"
  input: "Variable_4/read"
  attr {
    key: "N"
    value {
      i: 2
    }
  }
  attr {
    key: "T"
    value {
      type: DT_FLOAT
    }
  }
  attr {
    key: "out_type"
    value {
      type: DT_INT32
    }
  }
}
node {
  name: "train/gradients/Conv2D_2_grad/Const"
  op: "Const"
  attr {
    key: "dtype"
    value {
      type: DT_INT32
    }
  }
  attr {
    key: "value"
    value {
      tensor {
        dtype: DT_INT32
        tensor_shape {
          dim {
            size: 4
          }
        }
        tensor_content: "\005\000\000\000\005\000\000\000\020\000\000\000 \000\000\000"
      }
    }
  }
}
node {
  name: "train/gradients/Conv2D_2_grad/Conv2DBackpropInput"
  op: "Conv2DBackpropInput"
  input: "train/gradients/Conv2D_2_grad/ShapeN"
  input: "Variable_4/read"
  input: "train/gradients/add_2_grad/tuple/control_dependency"
  attr {
    key: "T"
    value {
      type: DT_FLOAT
    }
  }
  attr {
    key: "data_format"
    value {
      s: "NHWC"
    }
  }
  attr {
    key: "dilations"
    value {
      list {
        i: 1
        i: 1
        i: 1
        i: 1
      }
    }
  }
  attr {
    key: "padding"
    value {
      s: "SAME"
    }
  }
  attr {
    key: "strides"
    value {
      list {
        i: 1
        i: 1
        i: 1
        i: 1
      }
    }
  }
  attr {
    key: "use_cudnn_on_gpu"
    value {
      b: true
    }
  }
}
node {
  name: "train/gradients/Conv2D_2_grad/Conv2DBackpropFilter"
  op: "Conv2DBackpropFilter"
  input: "MaxPool_1"
  input: "train/gradients/Conv2D_2_grad/Const"
  input: "train/gradients/add_2_grad/tuple/control_dependency"
  attr {
    key: "T"
    value {
      type: DT_FLOAT
    }
  }
  attr {
    key: "data_format"
    value {
      s: "NHWC"
    }
  }
  attr {
    key: "dilations"
    value {
      list {
        i: 1
        i: 1
        i: 1
        i: 1
      }
    }
  }
  attr {
    key: "padding"
    value {
      s: "SAME"
    }
  }
  attr {
    key: "strides"
    value {
      list {
        i: 1
        i: 1
        i: 1
        i: 1
      }
    }
  }
  attr {
    key: "use_cudnn_on_gpu"
    value {
      b: true
    }
  }
}
node {
  name: "train/gradients/Conv2D_2_grad/tuple/group_deps"
  op: "NoOp"
  input: "^train/gradients/Conv2D_2_grad/Conv2DBackpropInput"
  input: "^train/gradients/Conv2D_2_grad/Conv2DBackpropFilter"
}
node {
  name: "train/gradients/Conv2D_2_grad/tuple/control_dependency"
  op: "Identity"
  input: "train/gradients/Conv2D_2_grad/Conv2DBackpropInput"
  input: "^train/gradients/Conv2D_2_grad/tuple/group_deps"
  attr {
    key: "T"
    value {
      type: DT_FLOAT
    }
  }
  attr {
    key: "_class"
    value {
      list {
        s: "loc:@train/gradients/Conv2D_2_grad/Conv2DBackpropInput"
      }
    }
  }
}
node {
  name: "train/gradients/Conv2D_2_grad/tuple/control_dependency_1"
  op: "Identity"
  input: "train/gradients/Conv2D_2_grad/Conv2DBackpropFilter"
  input: "^train/gradients/Conv2D_2_grad/tuple/group_deps"
  attr {
    key: "T"
    value {
      type: DT_FLOAT
    }
  }
  attr {
    key: "_class"
    value {
      list {
        s: "loc:@train/gradients/Conv2D_2_grad/Conv2DBackpropFilter"
      }
    }
  }
}
node {
  name: "train/gradients/MaxPool_1_grad/MaxPoolGrad"
  op: "MaxPoolGrad"
  input: "dropout/mul"
  input: "MaxPool_1"
  input: "train/gradients/Conv2D_2_grad/tuple/control_dependency"
  attr {
    key: "T"
    value {
      type: DT_FLOAT
    }
  }
  attr {
    key: "data_format"
    value {
      s: "NHWC"
    }
  }
  attr {
    key: "ksize"
    value {
      list {
        i: 1
        i: 2
        i: 2
        i: 1
      }
    }
  }
  attr {
    key: "padding"
    value {
      s: "SAME"
    }
  }
  attr {
    key: "strides"
    value {
      list {
        i: 1
        i: 2
        i: 2
        i: 1
      }
    }
  }
}
node {
  name: "train/gradients/dropout/mul_grad/Shape"
  op: "Shape"
  input: "dropout/div"
  attr {
    key: "T"
    value {
      type: DT_FLOAT
    }
  }
  attr {
    key: "out_type"
    value {
      type: DT_INT32
    }
  }
}
node {
  name: "train/gradients/dropout/mul_grad/Shape_1"
  op: "Shape"
  input: "dropout/Floor"
  attr {
    key: "T"
    value {
      type: DT_FLOAT
    }
  }
  attr {
    key: "out_type"
    value {
      type: DT_INT32
    }
  }
}
node {
  name: "train/gradients/dropout/mul_grad/BroadcastGradientArgs"
  op: "BroadcastGradientArgs"
  input: "train/gradients/dropout/mul_grad/Shape"
  input: "train/gradients/dropout/mul_grad/Shape_1"
  attr {
    key: "T"
    value {
      type: DT_INT32
    }
  }
}
node {
  name: "train/gradients/dropout/mul_grad/mul"
  op: "Mul"
  input: "train/gradients/MaxPool_1_grad/MaxPoolGrad"
  input: "dropout/Floor"
  attr {
    key: "T"
    value {
      type: DT_FLOAT
    }
  }
}
node {
  name: "train/gradients/dropout/mul_grad/Sum"
  op: "Sum"
  input: "train/gradients/dropout/mul_grad/mul"
  input: "train/gradients/dropout/mul_grad/BroadcastGradientArgs"
  attr {
    key: "T"
    value {
      type: DT_FLOAT
    }
  }
  attr {
    key: "Tidx"
    value {
      type: DT_INT32
    }
  }
  attr {
    key: "keep_dims"
    value {
      b: false
    }
  }
}
node {
  name: "train/gradients/dropout/mul_grad/Reshape"
  op: "Reshape"
  input: "train/gradients/dropout/mul_grad/Sum"
  input: "train/gradients/dropout/mul_grad/Shape"
  attr {
    key: "T"
    value {
      type: DT_FLOAT
    }
  }
  attr {
    key: "Tshape"
    value {
      type: DT_INT32
    }
  }
}
node {
  name: "train/gradients/dropout/mul_grad/mul_1"
  op: "Mul"
  input: "dropout/div"
  input: "train/gradients/MaxPool_1_grad/MaxPoolGrad"
  attr {
    key: "T"
    value {
      type: DT_FLOAT
    }
  }
}
node {
  name: "train/gradients/dropout/mul_grad/Sum_1"
  op: "Sum"
  input: "train/gradients/dropout/mul_grad/mul_1"
  input: "train/gradients/dropout/mul_grad/BroadcastGradientArgs:1"
  attr {
    key: "T"
    value {
      type: DT_FLOAT
    }
  }
  attr {
    key: "Tidx"
    value {
      type: DT_INT32
    }
  }
  attr {
    key: "keep_dims"
    value {
      b: false
    }
  }
}
node {
  name: "train/gradients/dropout/mul_grad/Reshape_1"
  op: "Reshape"
  input: "train/gradients/dropout/mul_grad/Sum_1"
  input: "train/gradients/dropout/mul_grad/Shape_1"
  attr {
    key: "T"
    value {
      type: DT_FLOAT
    }
  }
  attr {
    key: "Tshape"
    value {
      type: DT_INT32
    }
  }
}
node {
  name: "train/gradients/dropout/mul_grad/tuple/group_deps"
  op: "NoOp"
  input: "^train/gradients/dropout/mul_grad/Reshape"
  input: "^train/gradients/dropout/mul_grad/Reshape_1"
}
node {
  name: "train/gradients/dropout/mul_grad/tuple/control_dependency"
  op: "Identity"
  input: "train/gradients/dropout/mul_grad/Reshape"
  input: "^train/gradients/dropout/mul_grad/tuple/group_deps"
  attr {
    key: "T"
    value {
      type: DT_FLOAT
    }
  }
  attr {
    key: "_class"
    value {
      list {
        s: "loc:@train/gradients/dropout/mul_grad/Reshape"
      }
    }
  }
}
node {
  name: "train/gradients/dropout/mul_grad/tuple/control_dependency_1"
  op: "Identity"
  input: "train/gradients/dropout/mul_grad/Reshape_1"
  input: "^train/gradients/dropout/mul_grad/tuple/group_deps"
  attr {
    key: "T"
    value {
      type: DT_FLOAT
    }
  }
  attr {
    key: "_class"
    value {
      list {
        s: "loc:@train/gradients/dropout/mul_grad/Reshape_1"
      }
    }
  }
}
node {
  name: "train/gradients/dropout/div_grad/Shape"
  op: "Shape"
  input: "Relu_1"
  attr {
    key: "T"
    value {
      type: DT_FLOAT
    }
  }
  attr {
    key: "out_type"
    value {
      type: DT_INT32
    }
  }
}
node {
  name: "train/gradients/dropout/div_grad/Shape_1"
  op: "Shape"
  input: "keep_prob"
  attr {
    key: "T"
    value {
      type: DT_FLOAT
    }
  }
  attr {
    key: "out_type"
    value {
      type: DT_INT32
    }
  }
}
node {
  name: "train/gradients/dropout/div_grad/BroadcastGradientArgs"
  op: "BroadcastGradientArgs"
  input: "train/gradients/dropout/div_grad/Shape"
  input: "train/gradients/dropout/div_grad/Shape_1"
  attr {
    key: "T"
    value {
      type: DT_INT32
    }
  }
}
node {
  name: "train/gradients/dropout/div_grad/RealDiv"
  op: "RealDiv"
  input: "train/gradients/dropout/mul_grad/tuple/control_dependency"
  input: "keep_prob"
  attr {
    key: "T"
    value {
      type: DT_FLOAT
    }
  }
}
node {
  name: "train/gradients/dropout/div_grad/Sum"
  op: "Sum"
  input: "train/gradients/dropout/div_grad/RealDiv"
  input: "train/gradients/dropout/div_grad/BroadcastGradientArgs"
  attr {
    key: "T"
    value {
      type: DT_FLOAT
    }
  }
  attr {
    key: "Tidx"
    value {
      type: DT_INT32
    }
  }
  attr {
    key: "keep_dims"
    value {
      b: false
    }
  }
}
node {
  name: "train/gradients/dropout/div_grad/Reshape"
  op: "Reshape"
  input: "train/gradients/dropout/div_grad/Sum"
  input: "train/gradients/dropout/div_grad/Shape"
  attr {
    key: "T"
    value {
      type: DT_FLOAT
    }
  }
  attr {
    key: "Tshape"
    value {
      type: DT_INT32
    }
  }
}
node {
  name: "train/gradients/dropout/div_grad/Neg"
  op: "Neg"
  input: "Relu_1"
  attr {
    key: "T"
    value {
      type: DT_FLOAT
    }
  }
}
node {
  name: "train/gradients/dropout/div_grad/RealDiv_1"
  op: "RealDiv"
  input: "train/gradients/dropout/div_grad/Neg"
  input: "keep_prob"
  attr {
    key: "T"
    value {
      type: DT_FLOAT
    }
  }
}
node {
…
      }
    }
  }
  attr {
    key: "use_locking"
    value {
      b: false
    }
  }
  attr {
    key: "use_nesterov"
    value {
      b: false
    }
  }
}
node {
  name: "train/Adam/update_Variable_7/ApplyAdam"
  op: "ApplyAdam"
  input: "Variable_7"
  input: "Variable_7/Adam"
  input: "Variable_7/Adam_1"
  input: "train/beta1_power/read"
  input: "train/beta2_power/read"
  input: "train/learning_rate_input"
  input: "train/Adam/beta1"
  input: "train/Adam/beta2"
  input: "train/Adam/epsilon"
  input: "train/gradients/add_3_grad/tuple/control_dependency_1"
  attr {
    key: "T"
    value {
      type: DT_FLOAT
    }
  }
  attr {
    key: "_class"
    value {
      list {
        s: "loc:@Variable_7"
      }
    }
  }
  attr {
    key: "use_locking"
    value {
      b: false
    }
  }
  attr {
    key: "use_nesterov"
    value {
      b: false
    }
  }
}
node {
  name: "train/Adam/update_Variable_8/ApplyAdam"
  op: "ApplyAdam"
  input: "Variable_8"
  input: "Variable_8/Adam"
  input: "Variable_8/Adam_1"
  input: "train/beta1_power/read"
  input: "train/beta2_power/read"
  input: "train/learning_rate_input"
  input: "train/Adam/beta1"
  input: "train/Adam/beta2"
  input: "train/Adam/epsilon"
  input: "train/gradients/Conv2D_4_grad/tuple/control_dependency_1"
  attr {
    key: "T"
    value {
      type: DT_FLOAT
    }
  }
  attr {
    key: "_class"
    value {
      list {
        s: "loc:@Variable_8"
      }
    }
  }
  attr {
    key: "use_locking"
    value {
      b: false
    }
  }
  attr {
    key: "use_nesterov"
    value {
      b: false
    }
  }
}
node {
  name: "train/Adam/update_Variable_9/ApplyAdam"
  op: "ApplyAdam"
  input: "Variable_9"
  input: "Variable_9/Adam"
  input: "Variable_9/Adam_1"
  input: "train/beta1_power/read"
  input: "train/beta2_power/read"
  input: "train/learning_rate_input"
  input: "train/Adam/beta1"
  input: "train/Adam/beta2"
  input: "train/Adam/epsilon"
  input: "train/gradients/add_4_grad/tuple/control_dependency_1"
  attr {
    key: "T"
    value {
      type: DT_FLOAT
    }
  }
  attr {
    key: "_class"
    value {
      list {
        s: "loc:@Variable_9"
      }
    }
  }
  attr {
    key: "use_locking"
    value {
      b: false
    }
  }
  attr {
    key: "use_nesterov"
    value {
      b: false
    }
  }
}
node {
  name: "train/Adam/update_Variable_10/ApplyAdam"
  op: "ApplyAdam"
  input: "Variable_10"
  input: "Variable_10/Adam"
  input: "Variable_10/Adam_1"
  input: "train/beta1_power/read"
  input: "train/beta2_power/read"
  input: "train/learning_rate_input"
  input: "train/Adam/beta1"
  input: "train/Adam/beta2"
  input: "train/Adam/epsilon"
  input: "train/gradients/Conv2D_5_grad/tuple/control_dependency_1"
  attr {
    key: "T"
    value {
      type: DT_FLOAT
    }
  }
  attr {
    key: "_class"
    value {
      list {
        s: "loc:@Variable_10"
      }
    }
  }
  attr {
    key: "use_locking"
    value {
      b: false
    }
  }
  attr {
    key: "use_nesterov"
    value {
      b: false
    }
  }
}
node {
  name: "train/Adam/update_Variable_11/ApplyAdam"
  op: "ApplyAdam"
  input: "Variable_11"
  input: "Variable_11/Adam"
  input: "Variable_11/Adam_1"
  input: "train/beta1_power/read"
  input: "train/beta2_power/read"
  input: "train/learning_rate_input"
  input: "train/Adam/beta1"
  input: "train/Adam/beta2"
  input: "train/Adam/epsilon"
  input: "train/gradients/add_5_grad/tuple/control_dependency_1"
  attr {
    key: "T"
    value {
      type: DT_FLOAT
    }
  }
  attr {
    key: "_class"
    value {
      list {
        s: "loc:@Variable_11"
      }
    }
  }
  attr {
    key: "use_locking"
    value {
      b: false
    }
  }
  attr {
    key: "use_nesterov"
    value {
      b: false
    }
  }
}
node {
  name: "train/Adam/update_dense/kernel/ApplyAdam"
  op: "ApplyAdam"
  input: "dense/kernel"
  input: "dense/kernel/Adam"
  input: "dense/kernel/Adam_1"
  input: "train/beta1_power/read"
  input: "train/beta2_power/read"
  input: "train/learning_rate_input"
  input: "train/Adam/beta1"
  input: "train/Adam/beta2"
  input: "train/Adam/epsilon"
  input: "train/gradients/dense/MatMul_grad/tuple/control_dependency_1"
  attr {
    key: "T"
    value {
      type: DT_FLOAT
    }
  }
  attr {
    key: "_class"
    value {
      list {
        s: "loc:@dense/kernel"
      }
    }
  }
  attr {
    key: "use_locking"
    value {
      b: false
    }
  }
  attr {
    key: "use_nesterov"
    value {
      b: false
    }
  }
}
node {
  name: "train/Adam/update_dense/bias/ApplyAdam"
  op: "ApplyAdam"
  input: "dense/bias"
  input: "dense/bias/Adam"
  input: "dense/bias/Adam_1"
  input: "train/beta1_power/read"
  input: "train/beta2_power/read"
  input: "train/learning_rate_input"
  input: "train/Adam/beta1"
  input: "train/Adam/beta2"
  input: "train/Adam/epsilon"
  input: "train/gradients/dense/BiasAdd_grad/tuple/control_dependency_1"
  attr {
    key: "T"
    value {
      type: DT_FLOAT
    }
  }
  attr {
    key: "_class"
    value {
      list {
        s: "loc:@dense/bias"
      }
    }
  }
  attr {
    key: "use_locking"
    value {
      b: false
    }
  }
  attr {
    key: "use_nesterov"
    value {
      b: false
    }
  }
}
node {
  name: "train/Adam/update_dense_1/kernel/ApplyAdam"
  op: "ApplyAdam"
  input: "dense_1/kernel"
  input: "dense_1/kernel/Adam"
  input: "dense_1/kernel/Adam_1"
  input: "train/beta1_power/read"
  input: "train/beta2_power/read"
  input: "train/learning_rate_input"
  input: "train/Adam/beta1"
  input: "train/Adam/beta2"
  input: "train/Adam/epsilon"
  input: "train/gradients/dense_1/MatMul_grad/tuple/control_dependency_1"
  attr {
    key: "T"
    value {
      type: DT_FLOAT
    }
  }
  attr {
    key: "_class"
    value {
      list {
        s: "loc:@dense_1/kernel"
      }
    }
  }
  attr {
    key: "use_locking"
    value {
      b: false
    }
  }
  attr {
    key: "use_nesterov"
    value {
      b: false
    }
  }
}
node {
  name: "train/Adam/update_dense_1/bias/ApplyAdam"
  op: "ApplyAdam"
  input: "dense_1/bias"
  input: "dense_1/bias/Adam"
  input: "dense_1/bias/Adam_1"
  input: "train/beta1_power/read"
  input: "train/beta2_power/read"
  input: "train/learning_rate_input"
  input: "train/Adam/beta1"
  input: "train/Adam/beta2"
  input: "train/Adam/epsilon"
  input: "train/gradients/dense_1/BiasAdd_grad/tuple/control_dependency_1"
  attr {
    key: "T"
    value {
      type: DT_FLOAT
    }
  }
  attr {
    key: "_class"
    value {
      list {
        s: "loc:@dense_1/bias"
      }
    }
  }
  attr {
    key: "use_locking"
    value {
      b: false
    }
  }
  attr {
    key: "use_nesterov"
    value {
      b: false
    }
  }
}
node {
  name: "train/Adam/mul"
  op: "Mul"
  input: "train/beta1_power/read"
  input: "train/Adam/beta1"
  input: "^train/Adam/update_Variable/ApplyAdam"
  input: "^train/Adam/update_Variable_1/ApplyAdam"
  input: "^train/Adam/update_Variable_2/ApplyAdam"
  input: "^train/Adam/update_Variable_3/ApplyAdam"
  input: "^train/Adam/update_Variable_4/ApplyAdam"
  input: "^train/Adam/update_Variable_5/ApplyAdam"
  input: "^train/Adam/update_Variable_6/ApplyAdam"
  input: "^train/Adam/update_Variable_7/ApplyAdam"
  input: "^train/Adam/update_Variable_8/ApplyAdam"
  input: "^train/Adam/update_Variable_9/ApplyAdam"
  input: "^train/Adam/update_Variable_10/ApplyAdam"
  input: "^train/Adam/update_Variable_11/ApplyAdam"
  input: "^train/Adam/update_dense/kernel/ApplyAdam"
  input: "^train/Adam/update_dense/bias/ApplyAdam"
  input: "^train/Adam/update_dense_1/kernel/ApplyAdam"
  input: "^train/Adam/update_dense_1/bias/ApplyAdam"
  attr {
    key: "T"
    value {
      type: DT_FLOAT
    }
  }
  attr {
    key: "_class"
    value {
      list {
        s: "loc:@Variable"
      }
    }
  }
}
node {
  name: "train/Adam/Assign"
  op: "Assign"
  input: "train/beta1_power"
  input: "train/Adam/mul"
  attr {
    key: "T"
    value {
      type: DT_FLOAT
    }
  }
  attr {
    key: "_class"
    value {
      list {
        s: "loc:@Variable"
      }
    }
  }
  attr {
    key: "use_locking"
    value {
      b: false
    }
  }
  attr {
    key: "validate_shape"
    value {
      b: true
    }
  }
}
node {
  name: "train/Adam/mul_1"
  op: "Mul"
  input: "train/beta2_power/read"
  input: "train/Adam/beta2"
  input: "^train/Adam/update_Variable/ApplyAdam"
  input: "^train/Adam/update_Variable_1/ApplyAdam"
  input: "^train/Adam/update_Variable_2/ApplyAdam"
  input: "^train/Adam/update_Variable_3/ApplyAdam"
  input: "^train/Adam/update_Variable_4/ApplyAdam"
  input: "^train/Adam/update_Variable_5/ApplyAdam"
  input: "^train/Adam/update_Variable_6/ApplyAdam"
  input: "^train/Adam/update_Variable_7/ApplyAdam"
  input: "^train/Adam/update_Variable_8/ApplyAdam"
  input: "^train/Adam/update_Variable_9/ApplyAdam"
  input: "^train/Adam/update_Variable_10/ApplyAdam"
  input: "^train/Adam/update_Variable_11/ApplyAdam"
  input: "^train/Adam/update_dense/kernel/ApplyAdam"
  input: "^train/Adam/update_dense/bias/ApplyAdam"
  input: "^train/Adam/update_dense_1/kernel/ApplyAdam"
  input: "^train/Adam/update_dense_1/bias/ApplyAdam"
  attr {
    key: "T"
    value {
      type: DT_FLOAT
    }
  }
  attr {
    key: "_class"
    value {
      list {
        s: "loc:@Variable"
      }
    }
  }
}
node {
  name: "train/Adam/Assign_1"
  op: "Assign"
  input: "train/beta2_power"
  input: "train/Adam/mul_1"
  attr {
    key: "T"
    value {
      type: DT_FLOAT
    }
  }
  attr {
    key: "_class"
    value {
      list {
        s: "loc:@Variable"
      }
    }
  }
  attr {
    key: "use_locking"
    value {
      b: false
    }
  }
  attr {
    key: "validate_shape"
    value {
      b: true
    }
  }
}
node {
  name: "train/Adam"
  op: "NoOp"
  input: "^train/Adam/update_Variable/ApplyAdam"
  input: "^train/Adam/update_Variable_1/ApplyAdam"
  input: "^train/Adam/update_Variable_2/ApplyAdam"
  input: "^train/Adam/update_Variable_3/ApplyAdam"
  input: "^train/Adam/update_Variable_4/ApplyAdam"
  input: "^train/Adam/update_Variable_5/ApplyAdam"
  input: "^train/Adam/update_Variable_6/ApplyAdam"
  input: "^train/Adam/update_Variable_7/ApplyAdam"
  input: "^train/Adam/update_Variable_8/ApplyAdam"
  input: "^train/Adam/update_Variable_9/ApplyAdam"
  input: "^train/Adam/update_Variable_10/ApplyAdam"
  input: "^train/Adam/update_Variable_11/ApplyAdam"
  input: "^train/Adam/update_dense/kernel/ApplyAdam"
  input: "^train/Adam/update_dense/bias/ApplyAdam"
  input: "^train/Adam/update_dense_1/kernel/ApplyAdam"
  input: "^train/Adam/update_dense_1/bias/ApplyAdam"
  input: "^train/Adam/Assign"
  input: "^train/Adam/Assign_1"
}
node {
  name: "global_step/Initializer/zeros/shape_as_tensor"
  op: "Const"
  attr {
    key: "_class"
    value {
      list {
        s: "loc:@global_step"
      }
    }
  }
  attr {
    key: "dtype"
    value {
      type: DT_INT32
    }
  }
  attr {
    key: "value"
    value {
      tensor {
        dtype: DT_INT32
        tensor_shape {
          dim {
          }
        }
      }
    }
  }
}
node {
  name: "global_step/Initializer/zeros/Const"
  op: "Const"
  attr {
    key: "_class"
    value {
      list {
        s: "loc:@global_step"
      }
    }
  }
  attr {
    key: "dtype"
    value {
      type: DT_INT64
    }
  }
  attr {
    key: "value"
    value {
      tensor {
        dtype: DT_INT64
        tensor_shape {
        }
        int64_val: 0
      }
    }
  }
}
node {
  name: "global_step/Initializer/zeros"
  op: "Fill"
  input: "global_step/Initializer/zeros/shape_as_tensor"
  input: "global_step/Initializer/zeros/Const"
  attr {
    key: "T"
    value {
      type: DT_INT64
    }
  }
  attr {
    key: "_class"
    value {
      list {
        s: "loc:@global_step"
      }
    }
  }
  attr {
    key: "index_type"
    value {
      type: DT_INT32
    }
  }
}
node {
  name: "global_step"
  op: "VariableV2"
  attr {
    key: "_class"
    value {
      list {
        s: "loc:@global_step"
      }
    }
  }
  attr {
    key: "container"
    value {
      s: ""
    }
  }
  attr {
    key: "dtype"
    value {
      type: DT_INT64
    }
  }
  attr {
    key: "shape"
    value {
      shape {
      }
    }
  }
  attr {
    key: "shared_name"
    value {
      s: ""
    }
  }
}
node {
  name: "global_step/Assign"
  op: "Assign"
  input: "global_step"
  input: "global_step/Initializer/zeros"
  attr {
    key: "T"
    value {
      type: DT_INT64
    }
  }
  attr {
    key: "_class"
    value {
      list {
        s: "loc:@global_step"
      }
    }
  }
  attr {
    key: "use_locking"
    value {
      b: true
    }
  }
  attr {
    key: "validate_shape"
    value {
      b: true
    }
  }
}
node {
  name: "global_step/read"
  op: "Identity"
  input: "global_step"
  attr {
    key: "T"
    value {
      type: DT_INT64
    }
  }
  attr {
    key: "_class"
    value {
      list {
        s: "loc:@global_step"
      }
    }
  }
}
node {
  name: "add_6/y"
  op: "Const"
  attr {
    key: "dtype"
    value {
      type: DT_INT64
    }
  }
  attr {
    key: "value"
    value {
      tensor {
        dtype: DT_INT64
        tensor_shape {
        }
        int64_val: 1
      }
    }
  }
}
node {
  name: "add_6"
  op: "Add"
  input: "global_step/read"
  input: "add_6/y"
  attr {
    key: "T"
    value {
      type: DT_INT64
    }
  }
}
node {
  name: "Assign"
  op: "Assign"
  input: "global_step"
  input: "add_6"
  attr {
    key: "T"
    value {
      type: DT_INT64
    }
  }
  attr {
    key: "_class"
    value {
      list {
        s: "loc:@global_step"
      }
    }
  }
  attr {
    key: "use_locking"
    value {
      b: true
    }
  }
  attr {
    key: "validate_shape"
    value {
      b: true
    }
  }
}
node {
  name: "save/Const"
  op: "Const"
  attr {
    key: "dtype"
    value {
      type: DT_STRING
    }
  }
  attr {
    key: "value"
    value {
      tensor {
        dtype: DT_STRING
        tensor_shape {
        }
        string_val: "model"
      }
    }
  }
}
node {
  name: "save/SaveV2/tensor_names"
  op: "Const"
  attr {
    key: "dtype"
    value {
      type: DT_STRING
    }
  }
  attr {
    key: "value"
    value {
      tensor {
        dtype: DT_STRING
        tensor_shape {
          dim {
            size: 51
          }
        }
        string_val: "Variable"
        string_val: "Variable/Adam"
        string_val: "Variable/Adam_1"
        string_val: "Variable_1"
        string_val: "Variable_1/Adam"
        string_val: "Variable_1/Adam_1"
        string_val: "Variable_10"
        string_val: "Variable_10/Adam"
        string_val: "Variable_10/Adam_1"
        string_val: "Variable_11"
        string_val: "Variable_11/Adam"
        string_val: "Variable_11/Adam_1"
        string_val: "Variable_2"
        string_val: "Variable_2/Adam"
        string_val: "Variable_2/Adam_1"
        string_val: "Variable_3"
        string_val: "Variable_3/Adam"
        string_val: "Variable_3/Adam_1"
        string_val: "Variable_4"
        string_val: "Variable_4/Adam"
        string_val: "Variable_4/Adam_1"
        string_val: "Variable_5"
        string_val: "Variable_5/Adam"
        string_val: "Variable_5/Adam_1"
        string_val: "Variable_6"
        string_val: "Variable_6/Adam"
        string_val: "Variable_6/Adam_1"
        string_val: "Variable_7"
        string_val: "Variable_7/Adam"
        string_val: "Variable_7/Adam_1"
        string_val: "Variable_8"
        string_val: "Variable_8/Adam"
        string_val: "Variable_8/Adam_1"
        string_val: "Variable_9"
        string_val: "Variable_9/Adam"
        string_val: "Variable_9/Adam_1"
        string_val: "dense/bias"
        string_val: "dense/bias/Adam"
        string_val: "dense/bias/Adam_1"
        string_val: "dense/kernel"
        string_val: "dense/kernel/Adam"
        string_val: "dense/kernel/Adam_1"
        string_val: "dense_1/bias"
        string_val: "dense_1/bias/Adam"
        string_val: "dense_1/bias/Adam_1"
        string_val: "dense_1/kernel"
        string_val: "dense_1/kernel/Adam"
        string_val: "dense_1/kernel/Adam_1"
        string_val: "global_step"
        string_val: "train/beta1_power"
        string_val: "train/beta2_power"
      }
    }
  }
}
node {
  name: "save/SaveV2/shape_and_slices"
  op: "Const"
  attr {
    key: "dtype"
    value {
      type: DT_STRING
    }
  }
  attr {
    key: "value"
    value {
      tensor {
        dtype: DT_STRING
        tensor_shape {
          dim {
            size: 51
          }
        }
        string_val: ""
        string_val: ""
        string_val: ""
        string_val: ""
        string_val: ""
        string_val: ""
        string_val: ""
        string_val: ""
        string_val: ""
        string_val: ""
        string_val: ""
        string_val: ""
        string_val: ""
        string_val: ""
        string_val: ""
        string_val: ""
        string_val: ""
        string_val: ""
        string_val: ""
        string_val: ""
        string_val: ""
        string_val: ""
        string_val: ""
        string_val: ""
        string_val: ""
        string_val: ""
        string_val: ""
        string_val: ""
        string_val: ""
        string_val: ""
        string_val: ""
        string_val: ""
        string_val: ""
        string_val: ""
        string_val: ""
        string_val: ""
        string_val: ""
        string_val: ""
        string_val: ""
        string_val: ""
        string_val: ""
        string_val: ""
        string_val: ""
        string_val: ""
        string_val: ""
        string_val: ""
        string_val: ""
        string_val: ""
        string_val: ""
        string_val: ""
        string_val: ""
      }
    }
  }
}
node {
  name: "save/SaveV2"
  op: "SaveV2"
  input: "save/Const"
  input: "save/SaveV2/tensor_names"
  input: "save/SaveV2/shape_and_slices"
  input: "Variable"
  input: "Variable/Adam"
  input: "Variable/Adam_1"
  input: "Variable_1"
  input: "Variable_1/Adam"
  input: "Variable_1/Adam_1"
  input: "Variable_10"
  input: "Variable_10/Adam"
  input: "Variable_10/Adam_1"
  input: "Variable_11"
  input: "Variable_11/Adam"
  input: "Variable_11/Adam_1"
  input: "Variable_2"
  input: "Variable_2/Adam"
  input: "Variable_2/Adam_1"
  input: "Variable_3"
  input: "Variable_3/Adam"
  input: "Variable_3/Adam_1"
  input: "Variable_4"
  input: "Variable_4/Adam"
  input: "Variable_4/Adam_1"
  input: "Variable_5"
  input: "Variable_5/Adam"
  input: "Variable_5/Adam_1"
  input: "Variable_6"
  input: "Variable_6/Adam"
  input: "Variable_6/Adam_1"
  input: "Variable_7"
  input: "Variable_7/Adam"
  input: "Variable_7/Adam_1"
  input: "Variable_8"
  input: "Variable_8/Adam"
  input: "Variable_8/Adam_1"
  input: "Variable_9"
  input: "Variable_9/Adam"
  input: "Variable_9/Adam_1"
  input: "dense/bias"
  input: "dense/bias/Adam"
  input: "dense/bias/Adam_1"
  input: "dense/kernel"
  input: "dense/kernel/Adam"
  input: "dense/kernel/Adam_1"
  input: "dense_1/bias"
  input: "dense_1/bias/Adam"
  input: "dense_1/bias/Adam_1"
  input: "dense_1/kernel"
  input: "dense_1/kernel/Adam"
  input: "dense_1/kernel/Adam_1"
  input: "global_step"
  input: "train/beta1_power"
  input: "train/beta2_power"
  attr {
    key: "dtypes"
    value {
      list {
        type: DT_FLOAT
        type: DT_FLOAT
        type: DT_FLOAT
        type: DT_FLOAT
        type: DT_FLOAT
        type: DT_FLOAT
        type: DT_FLOAT
        type: DT_FLOAT
        type: DT_FLOAT
        type: DT_FLOAT
        type: DT_FLOAT
        type: DT_FLOAT
        type: DT_FLOAT
        type: DT_FLOAT
        type: DT_FLOAT
        type: DT_FLOAT
        type: DT_FLOAT
        type: DT_FLOAT
        type: DT_FLOAT
        type: DT_FLOAT
        type: DT_FLOAT
        type: DT_FLOAT
        type: DT_FLOAT
        type: DT_FLOAT
        type: DT_FLOAT
        type: DT_FLOAT
        type: DT_FLOAT
        type: DT_FLOAT
        type: DT_FLOAT
        type: DT_FLOAT
        type: DT_FLOAT
        type: DT_FLOAT
        type: DT_FLOAT
        type: DT_FLOAT
        type: DT_FLOAT
        type: DT_FLOAT
        type: DT_FLOAT
        type: DT_FLOAT
        type: DT_FLOAT
        type: DT_FLOAT
        type: DT_FLOAT
        type: DT_FLOAT
        type: DT_FLOAT
        type: DT_FLOAT
        type: DT_FLOAT
        type: DT_FLOAT
        type: DT_FLOAT
        type: DT_FLOAT
        type: DT_INT64
        type: DT_FLOAT
        type: DT_FLOAT
      }
    }
  }
}
node {
  name: "save/control_dependency"
  op: "Identity"
  input: "save/Const"
  input: "^save/SaveV2"
  attr {
    key: "T"
    value {
      type: DT_STRING
    }
  }
  attr {
    key: "_class"
    value {
      list {
        s: "loc:@save/Const"
      }
    }
  }
}
node {
  name: "save/RestoreV2/tensor_names"
  op: "Const"
  device: "/device:CPU:0"
  attr {
    key: "dtype"
    value {
      type: DT_STRING
    }
  }
  attr {
    key: "value"
    value {
      tensor {
        dtype: DT_STRING
        tensor_shape {
          dim {
            size: 51
          }
        }
        string_val: "Variable"
        string_val: "Variable/Adam"
        string_val: "Variable/Adam_1"
        string_val: "Variable_1"
        string_val: "Variable_1/Adam"
        string_val: "Variable_1/Adam_1"
        string_val: "Variable_10"
        string_val: "Variable_10/Adam"
        string_val: "Variable_10/Adam_1"
        string_val: "Variable_11"
        string_val: "Variable_11/Adam"
        string_val: "Variable_11/Adam_1"
        string_val: "Variable_2"
        string_val: "Variable_2/Adam"
        string_val: "Variable_2/Adam_1"
        string_val: "Variable_3"
        string_val: "Variable_3/Adam"
        string_val: "Variable_3/Adam_1"
        string_val: "Variable_4"
        string_val: "Variable_4/Adam"
        string_val: "Variable_4/Adam_1"
        string_val: "Variable_5"
        string_val: "Variable_5/Adam"
        string_val: "Variable_5/Adam_1"
        string_val: "Variable_6"
        string_val: "Variable_6/Adam"
        string_val: "Variable_6/Adam_1"
        string_val: "Variable_7"
        string_val: "Variable_7/Adam"
        string_val: "Variable_7/Adam_1"
        string_val: "Variable_8"
        string_val: "Variable_8/Adam"
        string_val: "Variable_8/Adam_1"
        string_val: "Variable_9"
        string_val: "Variable_9/Adam"
        string_val: "Variable_9/Adam_1"
        string_val: "dense/bias"
        string_val: "dense/bias/Adam"
        string_val: "dense/bias/Adam_1"
        string_val: "dense/kernel"
        string_val: "dense/kernel/Adam"
        string_val: "dense/kernel/Adam_1"
        string_val: "dense_1/bias"
        string_val: "dense_1/bias/Adam"
        string_val: "dense_1/bias/Adam_1"
        string_val: "dense_1/kernel"
        string_val: "dense_1/kernel/Adam"
        string_val: "dense_1/kernel/Adam_1"
        string_val: "global_step"
        string_val: "train/beta1_power"
        string_val: "train/beta2_power"
      }
    }
  }
}
node {
  name: "save/RestoreV2/shape_and_slices"
  op: "Const"
  device: "/device:CPU:0"
  attr {
    key: "dtype"
    value {
      type: DT_STRING
    }
  }
  attr {
    key: "value"
    value {
      tensor {
        dtype: DT_STRING
        tensor_shape {
          dim {
            size: 51
          }
        }
        string_val: ""
        string_val: ""
        string_val: ""
        string_val: ""
        string_val: ""
        string_val: ""
        string_val: ""
        string_val: ""
        string_val: ""
        string_val: ""
        string_val: ""
        string_val: ""
        string_val: ""
        string_val: ""
        string_val: ""
        string_val: ""
        string_val: ""
        string_val: ""
        string_val: ""
        string_val: ""
        string_val: ""
        string_val: ""
        string_val: ""
        string_val: ""
        string_val: ""
        string_val: ""
        string_val: ""
        string_val: ""
        string_val: ""
        string_val: ""
        string_val: ""
        string_val: ""
        string_val: ""
        string_val: ""
        string_val: ""
        string_val: ""
        string_val: ""
        string_val: ""
        string_val: ""
        string_val: ""
        string_val: ""
        string_val: ""
        string_val: ""
        string_val: ""
        string_val: ""
        string_val: ""
        string_val: ""
        string_val: ""
        string_val: ""
        string_val: ""
        string_val: ""
      }
    }
  }
}
node {
  name: "save/RestoreV2"
  op: "RestoreV2"
  input: "save/Const"
  input: "save/RestoreV2/tensor_names"
  input: "save/RestoreV2/shape_and_slices"
  device: "/device:CPU:0"
  attr {
    key: "dtypes"
    value {
      list {
        type: DT_FLOAT
        type: DT_FLOAT
        type: DT_FLOAT
        type: DT_FLOAT
        type: DT_FLOAT
        type: DT_FLOAT
        type: DT_FLOAT
        type: DT_FLOAT
        type: DT_FLOAT
        type: DT_FLOAT
        type: DT_FLOAT
        type: DT_FLOAT
        type: DT_FLOAT
        type: DT_FLOAT
        type: DT_FLOAT
        type: DT_FLOAT
        type: DT_FLOAT
        type: DT_FLOAT
        type: DT_FLOAT
        type: DT_FLOAT
        type: DT_FLOAT
        type: DT_FLOAT
        type: DT_FLOAT
        type: DT_FLOAT
        type: DT_FLOAT
        type: DT_FLOAT
        type: DT_FLOAT
        type: DT_FLOAT
        type: DT_FLOAT
        type: DT_FLOAT
        type: DT_FLOAT
        type: DT_FLOAT
        type: DT_FLOAT
        type: DT_FLOAT
        type: DT_FLOAT
        type: DT_FLOAT
        type: DT_FLOAT
        type: DT_FLOAT
        type: DT_FLOAT
        type: DT_FLOAT
        type: DT_FLOAT
        type: DT_FLOAT
        type: DT_FLOAT
        type: DT_FLOAT
        type: DT_FLOAT
        type: DT_FLOAT
        type: DT_FLOAT
        type: DT_FLOAT
        type: DT_INT64
        type: DT_FLOAT
        type: DT_FLOAT
      }
    }
  }
}
node {
  name: "save/Assign"
  op: "Assign"
  input: "Variable"
  input: "save/RestoreV2"
  attr {
    key: "T"
    value {
      type: DT_FLOAT
    }
  }
  attr {
    key: "_class"
    value {
      list {
        s: "loc:@Variable"
      }
    }
  }
  attr {
    key: "use_locking"
    value {
      b: true
    }
  }
  attr {
    key: "validate_shape"
    value {
      b: true
    }
  }
}
node {
  name: "save/Assign_1"
  op: "Assign"
  input: "Variable/Adam"
  input: "save/RestoreV2:1"
  attr {
    key: "T"
    value {
      type: DT_FLOAT
    }
  }
  attr {
    key: "_class"
    value {
      list {
        s: "loc:@Variable"
      }
    }
  }
  attr {
    key: "use_locking"
    value {
      b: true
    }
  }
  attr {
    key: "validate_shape"
    value {
      b: true
    }
  }
}
node {
  name: "save/Assign_2"
  op: "Assign"
  input: "Variable/Adam_1"
  input: "save/RestoreV2:2"
  attr {
    key: "T"
    value {
      type: DT_FLOAT
    }
  }
  attr {
    key: "_class"
    value {
      list {
        s: "loc:@Variable"
      }
    }
  }
  attr {
    key: "use_locking"
    value {
      b: true
    }
  }
  attr {
    key: "validate_shape"
    value {
      b: true
    }
  }
}
node {
  name: "save/Assign_3"
  op: "Assign"
  input: "Variable_1"
  input: "save/RestoreV2:3"
  attr {
    key: "T"
    value {
      type: DT_FLOAT
    }
  }
  attr {
    key: "_class"
    value {
      list {
        s: "loc:@Variable_1"
      }
    }
  }
  attr {
    key: "use_locking"
    value {
      b: true
    }
  }
  attr {
    key: "validate_shape"
    value {
      b: true
    }
  }
}
node {
  name: "save/Assign_4"
  op: "Assign"
  input: "Variable_1/Adam"
  input: "save/RestoreV2:4"
  attr {
    key: "T"
    value {
      type: DT_FLOAT
    }
  }
  attr {
    key: "_class"
    value {
      list {
        s: "loc:@Variable_1"
      }
    }
  }
  attr {
    key: "use_locking"
    value {
      b: true
    }
  }
  attr {
    key: "validate_shape"
    value {
      b: true
    }
  }
}
node {
  name: "save/Assign_5"
  op: "Assign"
  input: "Variable_1/Adam_1"
  input: "save/RestoreV2:5"
  attr {
    key: "T"
    value {
      type: DT_FLOAT
    }
  }
  attr {
    key: "_class"
    value {
      list {
        s: "loc:@Variable_1"
      }
    }
  }
  attr {
    key: "use_locking"
    value {
      b: true
    }
  }
  attr {
    key: "validate_shape"
    value {
      b: true
    }
  }
}
node {
  name: "save/Assign_6"
  op: "Assign"
  input: "Variable_10"
  input: "save/RestoreV2:6"
  attr {
    key: "T"
    value {
      type: DT_FLOAT
    }
  }
  attr {
    key: "_class"
    value {
      list {
        s: "loc:@Variable_10"
      }
    }
  }
  attr {
    key: "use_locking"
    value {
      b: true
    }
  }
  attr {
    key: "validate_shape"
    value {
      b: true
    }
  }
}
node {
  name: "save/Assign_7"
  op: "Assign"
  input: "Variable_10/Adam"
  input: "save/RestoreV2:7"
  attr {
    key: "T"
    value {
      type: DT_FLOAT
    }
  }
  attr {
    key: "_class"
    value {
      list {
        s: "loc:@Variable_10"
      }
    }
  }
  attr {
    key: "use_locking"
    value {
      b: true
    }
  }
  attr {
    key: "validate_shape"
    value {
      b: true
    }
  }
}
node {
  name: "save/Assign_8"
  op: "Assign"
  input: "Variable_10/Adam_1"
  input: "save/RestoreV2:8"
  attr {
    key: "T"
    value {
      type: DT_FLOAT
    }
  }
  attr {
    key: "_class"
    value {
      list {
        s: "loc:@Variable_10"
      }
    }
  }
  attr {
    key: "use_locking"
    value {
      b: true
    }
  }
  attr {
    key: "validate_shape"
    value {
      b: true
    }
  }
}
node {
  name: "save/Assign_9"
  op: "Assign"
  input: "Variable_11"
  input: "save/RestoreV2:9"
  attr {
    key: "T"
    value {
      type: DT_FLOAT
    }
  }
  attr {
    key: "_class"
    value {
      list {
        s: "loc:@Variable_11"
      }
    }
  }
  attr {
    key: "use_locking"
    value {
      b: true
    }
  }
  attr {
    key: "validate_shape"
    value {
      b: true
    }
  }
}
node {
  name: "save/Assign_10"
  op: "Assign"
  input: "Variable_11/Adam"
  input: "save/RestoreV2:10"
  attr {
    key: "T"
    value {
      type: DT_FLOAT
    }
  }
  attr {
    key: "_class"
    value {
      list {
        s: "loc:@Variable_11"
      }
    }
  }
  attr {
    key: "use_locking"
    value {
      b: true
    }
  }
  attr {
    key: "validate_shape"
    value {
      b: true
    }
  }
}
node {
  name: "save/Assign_11"
  op: "Assign"
  input: "Variable_11/Adam_1"
  input: "save/RestoreV2:11"
  attr {
    key: "T"
    value {
      type: DT_FLOAT
    }
  }
  attr {
    key: "_class"
    value {
      list {
        s: "loc:@Variable_11"
      }
    }
  }
  attr {
    key: "use_locking"
    value {
      b: true
    }
  }
  attr {
    key: "validate_shape"
    value {
      b: true
    }
  }
}
node {
  name: "save/Assign_12"
  op: "Assign"
  input: "Variable_2"
  input: "save/RestoreV2:12"
  attr {
    key: "T"
    value {
      type: DT_FLOAT
    }
  }
  attr {
    key: "_class"
    value {
      list {
        s: "loc:@Variable_2"
      }
    }
  }
  attr {
    key: "use_locking"
    value {
      b: true
    }
  }
  attr {
    key: "validate_shape"
    value {
      b: true
    }
  }
}
node {
  name: "save/Assign_13"
  op: "Assign"
  input: "Variable_2/Adam"
  input: "save/RestoreV2:13"
  attr {
    key: "T"
    value {
      type: DT_FLOAT
    }
  }
  attr {
    key: "_class"
    value {
      list {
        s: "loc:@Variable_2"
      }
    }
  }
  attr {
    key: "use_locking"
    value {
      b: true
    }
  }
  attr {
    key: "validate_shape"
    value {
      b: true
    }
  }
}
node {
  name: "save/Assign_14"
  op: "Assign"
  input: "Variable_2/Adam_1"
  input: "save/RestoreV2:14"
  attr {
    key: "T"
    value {
      type: DT_FLOAT
    }
  }
  attr {
    key: "_class"
    value {
      list {
        s: "loc:@Variable_2"
      }
    }
  }
  attr {
    key: "use_locking"
    value {
      b: true
    }
  }
  attr {
    key: "validate_shape"
    value {
      b: true
    }
  }
}
node {
  name: "save/Assign_15"
  op: "Assign"
  input: "Variable_3"
  input: "save/RestoreV2:15"
  attr {
    key: "T"
    value {
      type: DT_FLOAT
    }
  }
  attr {
    key: "_class"
    value {
      list {
        s: "loc:@Variable_3"
      }
    }
  }
  attr {
    key: "use_locking"
    value {
      b: true
    }
  }
  attr {
    key: "validate_shape"
    value {
      b: true
    }
  }
}
node {
  name: "save/Assign_16"
  op: "Assign"
  input: "Variable_3/Adam"
  input: "save/RestoreV2:16"
  attr {
    key: "T"
    value {
      type: DT_FLOAT
    }
  }
  attr {
    key: "_class"
    value {
      list {
        s: "loc:@Variable_3"
      }
    }
  }
  attr {
    key: "use_locking"
    value {
      b: true
    }
  }
  attr {
    key: "validate_shape"
    value {
      b: true
    }
  }
}
node {
  name: "save/Assign_17"
  op: "Assign"
  input: "Variable_3/Adam_1"
  input: "save/RestoreV2:17"
  attr {
    key: "T"
    value {
      type: DT_FLOAT
    }
  }
  attr {
    key: "_class"
    value {
      list {
        s: "loc:@Variable_3"
      }
    }
  }
  attr {
    key: "use_locking"
    value {
      b: true
    }
  }
  attr {
    key: "validate_shape"
    value {
      b: true
    }
  }
}
node {
  name: "save/Assign_18"
  op: "Assign"
  input: "Variable_4"
  input: "save/RestoreV2:18"
  attr {
    key: "T"
    value {
      type: DT_FLOAT
    }
  }
  attr {
    key: "_class"
    value {
      list {
        s: "loc:@Variable_4"
      }
    }
  }
  attr {
    key: "use_locking"
    value {
      b: true
    }
  }
  attr {
    key: "validate_shape"
    value {
      b: true
    }
  }
}
node {
  name: "save/Assign_19"
  op: "Assign"
  input: "Variable_4/Adam"
  input: "save/RestoreV2:19"
  attr {
    key: "T"
    value {
      type: DT_FLOAT
    }
  }
  attr {
    key: "_class"
    value {
      list {
        s: "loc:@Variable_4"
      }
    }
  }
  attr {
    key: "use_locking"
    value {
      b: true
    }
  }
  attr {
    key: "validate_shape"
    value {
      b: true
    }
  }
}
node {
  name: "save/Assign_20"
  op: "Assign"
  input: "Variable_4/Adam_1"
  input: "save/RestoreV2:20"
  attr {
    key: "T"
    value {
      type: DT_FLOAT
    }
  }
  attr {
    key: "_class"
    value {
      list {
        s: "loc:@Variable_4"
      }
    }
  }
  attr {
    key: "use_locking"
    value {
      b: true
    }
  }
  attr {
    key: "validate_shape"
    value {
      b: true
    }
  }
}
node {
  name: "save/Assign_21"
  op: "Assign"
  input: "Variable_5"
  input: "save/RestoreV2:21"
  attr {
    key: "T"
    value {
      type: DT_FLOAT
    }
  }
  attr {
    key: "_class"
    value {
      list {
        s: "loc:@Variable_5"
      }
    }
  }
  attr {
    key: "use_locking"
    value {
      b: true
    }
  }
  attr {
    key: "validate_shape"
    value {
      b: true
    }
  }
}
node {
  name: "save/Assign_22"
  op: "Assign"
  input: "Variable_5/Adam"
  input: "save/RestoreV2:22"
  attr {
    key: "T"
    value {
      type: DT_FLOAT
    }
  }
  attr {
    key: "_class"
    value {
      list {
        s: "loc:@Variable_5"
      }
    }
  }
  attr {
    key: "use_locking"
    value {
      b: true
    }
  }
  attr {
    key: "validate_shape"
    value {
      b: true
    }
  }
}
node {
  name: "save/Assign_23"
  op: "Assign"
  input: "Variable_5/Adam_1"
  input: "save/RestoreV2:23"
  attr {
    key: "T"
    value {
      type: DT_FLOAT
    }
  }
  attr {
    key: "_class"
    value {
      list {
        s: "loc:@Variable_5"
      }
    }
  }
  attr {
    key: "use_locking"
    value {
      b: true
    }
  }
  attr {
    key: "validate_shape"
    value {
      b: true
    }
  }
}
node {
  name: "save/Assign_24"
  op: "Assign"
  input: "Variable_6"
  input: "save/RestoreV2:24"
  attr {
    key: "T"
    value {
      type: DT_FLOAT
    }
  }
  attr {
    key: "_class"
    value {
      list {
        s: "loc:@Variable_6"
      }
    }
  }
  attr {
    key: "use_locking"
    value {
      b: true
    }
  }
  attr {
    key: "validate_shape"
    value {
      b: true
    }
  }
}
node {
  name: "save/Assign_25"
  op: "Assign"
  input: "Variable_6/Adam"
  input: "save/RestoreV2:25"
  attr {
    key: "T"
    value {
      type: DT_FLOAT
    }
  }
  attr {
    key: "_class"
    value {
      list {
        s: "loc:@Variable_6"
      }
    }
  }
  attr {
    key: "use_locking"
    value {
      b: true
    }
  }
  attr {
    key: "validate_shape"
    value {
      b: true
    }
  }
}
node {
  name: "save/Assign_26"
  op: "Assign"
  input: "Variable_6/Adam_1"
  input: "save/RestoreV2:26"
  attr {
    key: "T"
    value {
      type: DT_FLOAT
    }
  }
  attr {
    key: "_class"
    value {
      list {
        s: "loc:@Variable_6"
      }
    }
  }
  attr {
    key: "use_locking"
    value {
      b: true
    }
  }
  attr {
    key: "validate_shape"
    value {
      b: true
    }
  }
}
node {
  name: "save/Assign_27"
  op: "Assign"
  input: "Variable_7"
  input: "save/RestoreV2:27"
  attr {
    key: "T"
    value {
      type: DT_FLOAT
    }
  }
  attr {
    key: "_class"
    value {
      list {
        s: "loc:@Variable_7"
      }
    }
  }
  attr {
    key: "use_locking"
    value {
      b: true
    }
  }
  attr {
    key: "validate_shape"
    value {
      b: true
    }
  }
}
node {
  name: "save/Assign_28"
  op: "Assign"
  input: "Variable_7/Adam"
  input: "save/RestoreV2:28"
  attr {
    key: "T"
    value {
      type: DT_FLOAT
    }
  }
  attr {
    key: "_class"
    value {
      list {
        s: "loc:@Variable_7"
      }
    }
  }
  attr {
    key: "use_locking"
    value {
      b: true
    }
  }
  attr {
    key: "validate_shape"
    value {
      b: true
    }
  }
}
node {
  name: "save/Assign_29"
  op: "Assign"
  input: "Variable_7/Adam_1"
  input: "save/RestoreV2:29"
  attr {
    key: "T"
    value {
      type: DT_FLOAT
    }
  }
  attr {
    key: "_class"
    value {
      list {
        s: "loc:@Variable_7"
      }
    }
  }
  attr {
    key: "use_locking"
    value {
      b: true
    }
  }
  attr {
    key: "validate_shape"
    value {
      b: true
    }
  }
}
node {
  name: "save/Assign_30"
  op: "Assign"
  input: "Variable_8"
  input: "save/RestoreV2:30"
  attr {
    key: "T"
    value {
      type: DT_FLOAT
    }
  }
  attr {
    key: "_class"
    value {
      list {
        s: "loc:@Variable_8"
      }
    }
  }
  attr {
    key: "use_locking"
    value {
      b: true
    }
  }
  attr {
    key: "validate_shape"
    value {
      b: true
    }
  }
}
node {
  name: "save/Assign_31"
  op: "Assign"
  input: "Variable_8/Adam"
  input: "save/RestoreV2:31"
  attr {
    key: "T"
    value {
      type: DT_FLOAT
    }
  }
  attr {
    key: "_class"
    value {
      list {
        s: "loc:@Variable_8"
      }
    }
  }
  attr {
    key: "use_locking"
    value {
      b: true
    }
  }
  attr {
    key: "validate_shape"
    value {
      b: true
    }
  }
}
node {
  name: "save/Assign_32"
  op: "Assign"
  input: "Variable_8/Adam_1"
  input: "save/RestoreV2:32"
  attr {
    key: "T"
    value {
      type: DT_FLOAT
    }
  }
  attr {
    key: "_class"
    value {
      list {
        s: "loc:@Variable_8"
      }
    }
  }
  attr {
    key: "use_locking"
    value {
      b: true
    }
  }
  attr {
    key: "validate_shape"
    value {
      b: true
    }
  }
}
node {
  name: "save/Assign_33"
  op: "Assign"
  input: "Variable_9"
  input: "save/RestoreV2:33"
  attr {
    key: "T"
    value {
      type: DT_FLOAT
    }
  }
  attr {
    key: "_class"
    value {
      list {
        s: "loc:@Variable_9"
      }
    }
  }
  attr {
    key: "use_locking"
    value {
      b: true
    }
  }
  attr {
    key: "validate_shape"
    value {
      b: true
    }
  }
}
node {
  name: "save/Assign_34"
  op: "Assign"
  input: "Variable_9/Adam"
  input: "save/RestoreV2:34"
  attr {
    key: "T"
    value {
      type: DT_FLOAT
    }
  }
  attr {
    key: "_class"
    value {
      list {
        s: "loc:@Variable_9"
      }
    }
  }
  attr {
    key: "use_locking"
    value {
      b: true
    }
  }
  attr {
    key: "validate_shape"
    value {
      b: true
    }
  }
}
node {
  name: "save/Assign_35"
  op: "Assign"
  input: "Variable_9/Adam_1"
  input: "save/RestoreV2:35"
  attr {
    key: "T"
    value {
      type: DT_FLOAT
    }
  }
  attr {
    key: "_class"
    value {
      list {
        s: "loc:@Variable_9"
      }
    }
  }
  attr {
    key: "use_locking"
    value {
      b: true
    }
  }
  attr {
    key: "validate_shape"
    value {
      b: true
    }
  }
}
node {
  name: "save/Assign_36"
  op: "Assign"
  input: "dense/bias"
  input: "save/RestoreV2:36"
  attr {
    key: "T"
    value {
      type: DT_FLOAT
    }
  }
  attr {
    key: "_class"
    value {
      list {
        s: "loc:@dense/bias"
      }
    }
  }
  attr {
    key: "use_locking"
    value {
      b: true
    }
  }
  attr {
    key: "validate_shape"
    value {
      b: true
    }
  }
}
node {
  name: "save/Assign_37"
  op: "Assign"
  input: "dense/bias/Adam"
  input: "save/RestoreV2:37"
  attr {
    key: "T"
    value {
      type: DT_FLOAT
    }
  }
  attr {
    key: "_class"
    value {
      list {
        s: "loc:@dense/bias"
      }
    }
  }
  attr {
    key: "use_locking"
    value {
      b: true
    }
  }
  attr {
    key: "validate_shape"
    value {
      b: true
    }
  }
}
node {
  name: "save/Assign_38"
  op: "Assign"
  input: "dense/bias/Adam_1"
  input: "save/RestoreV2:38"
  attr {
    key: "T"
    value {
      type: DT_FLOAT
    }
  }
  attr {
    key: "_class"
    value {
      list {
        s: "loc:@dense/bias"
      }
    }
  }
  attr {
    key: "use_locking"
    value {
      b: true
    }
  }
  attr {
    key: "validate_shape"
    value {
      b: true
    }
  }
}
node {
  name: "save/Assign_39"
  op: "Assign"
  input: "dense/kernel"
  input: "save/RestoreV2:39"
  attr {
    key: "T"
    value {
      type: DT_FLOAT
    }
  }
  attr {
    key: "_class"
    value {
      list {
        s: "loc:@dense/kernel"
      }
    }
  }
  attr {
    key: "use_locking"
    value {
      b: true
    }
  }
  attr {
    key: "validate_shape"
    value {
      b: true
    }
  }
}
node {
  name: "save/Assign_40"
  op: "Assign"
  input: "dense/kernel/Adam"
  input: "save/RestoreV2:40"
  attr {
    key: "T"
    value {
      type: DT_FLOAT
    }
  }
  attr {
    key: "_class"
    value {
      list {
        s: "loc:@dense/kernel"
      }
    }
  }
  attr {
    key: "use_locking"
    value {
      b: true
    }
  }
  attr {
    key: "validate_shape"
    value {
      b: true
    }
  }
}
node {
  name: "save/Assign_41"
  op: "Assign"
  input: "dense/kernel/Adam_1"
  input: "save/RestoreV2:41"
  attr {
    key: "T"
    value {
      type: DT_FLOAT
    }
  }
  attr {
    key: "_class"
    value {
      list {
        s: "loc:@dense/kernel"
      }
    }
  }
  attr {
    key: "use_locking"
    value {
      b: true
    }
  }
  attr {
    key: "validate_shape"
    value {
      b: true
    }
  }
}
node {
  name: "save/Assign_42"
  op: "Assign"
  input: "dense_1/bias"
  input: "save/RestoreV2:42"
  attr {
    key: "T"
    value {
      type: DT_FLOAT
    }
  }
  attr {
    key: "_class"
    value {
      list {
        s: "loc:@dense_1/bias"
      }
    }
  }
  attr {
    key: "use_locking"
    value {
      b: true
    }
  }
  attr {
    key: "validate_shape"
    value {
      b: true
    }
  }
}
node {
  name: "save/Assign_43"
  op: "Assign"
  input: "dense_1/bias/Adam"
  input: "save/RestoreV2:43"
  attr {
    key: "T"
    value {
      type: DT_FLOAT
    }
  }
  attr {
    key: "_class"
    value {
      list {
        s: "loc:@dense_1/bias"
      }
    }
  }
  attr {
    key: "use_locking"
    value {
      b: true
    }
  }
  attr {
    key: "validate_shape"
    value {
      b: true
    }
  }
}
node {
  name: "save/Assign_44"
  op: "Assign"
  input: "dense_1/bias/Adam_1"
  input: "save/RestoreV2:44"
  attr {
    key: "T"
    value {
      type: DT_FLOAT
    }
  }
  attr {
    key: "_class"
    value {
      list {
        s: "loc:@dense_1/bias"
      }
    }
  }
  attr {
    key: "use_locking"
    value {
      b: true
    }
  }
  attr {
    key: "validate_shape"
    value {
      b: true
    }
  }
}
node {
  name: "save/Assign_45"
  op: "Assign"
  input: "dense_1/kernel"
  input: "save/RestoreV2:45"
  attr {
    key: "T"
    value {
      type: DT_FLOAT
    }
  }
  attr {
    key: "_class"
    value {
      list {
        s: "loc:@dense_1/kernel"
      }
    }
  }
  attr {
    key: "use_locking"
    value {
      b: true
    }
  }
  attr {
    key: "validate_shape"
    value {
      b: true
    }
  }
}
node {
  name: "save/Assign_46"
  op: "Assign"
  input: "dense_1/kernel/Adam"
  input: "save/RestoreV2:46"
  attr {
    key: "T"
    value {
      type: DT_FLOAT
    }
  }
  attr {
    key: "_class"
    value {
      list {
        s: "loc:@dense_1/kernel"
      }
    }
  }
  attr {
    key: "use_locking"
    value {
      b: true
    }
  }
  attr {
    key: "validate_shape"
    value {
      b: true
    }
  }
}
node {
  name: "save/Assign_47"
  op: "Assign"
  input: "dense_1/kernel/Adam_1"
  input: "save/RestoreV2:47"
  attr {
    key: "T"
    value {
      type: DT_FLOAT
    }
  }
  attr {
    key: "_class"
    value {
      list {
        s: "loc:@dense_1/kernel"
      }
    }
  }
  attr {
    key: "use_locking"
    value {
      b: true
    }
  }
  attr {
    key: "validate_shape"
    value {
      b: true
    }
  }
}
node {
  name: "save/Assign_48"
  op: "Assign"
  input: "global_step"
  input: "save/RestoreV2:48"
  attr {
    key: "T"
    value {
      type: DT_INT64
    }
  }
  attr {
    key: "_class"
    value {
      list {
        s: "loc:@global_step"
      }
    }
  }
  attr {
    key: "use_locking"
    value {
      b: true
    }
  }
  attr {
    key: "validate_shape"
    value {
      b: true
    }
  }
}
node {
  name: "save/Assign_49"
  op: "Assign"
  input: "train/beta1_power"
  input: "save/RestoreV2:49"
  attr {
    key: "T"
    value {
      type: DT_FLOAT
    }
  }
  attr {
    key: "_class"
    value {
      list {
        s: "loc:@Variable"
      }
    }
  }
  attr {
    key: "use_locking"
    value {
      b: true
    }
  }
  attr {
    key: "validate_shape"
    value {
      b: true
    }
  }
}
node {
  name: "save/Assign_50"
  op: "Assign"
  input: "train/beta2_power"
  input: "save/RestoreV2:50"
  attr {
    key: "T"
    value {
      type: DT_FLOAT
    }
  }
  attr {
    key: "_class"
    value {
      list {
        s: "loc:@Variable"
      }
    }
  }
  attr {
    key: "use_locking"
    value {
      b: true
    }
  }
  attr {
    key: "validate_shape"
    value {
      b: true
    }
  }
}
node {
  name: "save/restore_all"
  op: "NoOp"
  input: "^save/Assign"
  input: "^save/Assign_1"
  input: "^save/Assign_2"
  input: "^save/Assign_3"
  input: "^save/Assign_4"
  input: "^save/Assign_5"
  input: "^save/Assign_6"
  input: "^save/Assign_7"
  input: "^save/Assign_8"
  input: "^save/Assign_9"
  input: "^save/Assign_10"
  input: "^save/Assign_11"
  input: "^save/Assign_12"
  input: "^save/Assign_13"
  input: "^save/Assign_14"
  input: "^save/Assign_15"
  input: "^save/Assign_16"
  input: "^save/Assign_17"
  input: "^save/Assign_18"
  input: "^save/Assign_19"
  input: "^save/Assign_20"
  input: "^save/Assign_21"
  input: "^save/Assign_22"
  input: "^save/Assign_23"
  input: "^save/Assign_24"
  input: "^save/Assign_25"
  input: "^save/Assign_26"
  input: "^save/Assign_27"
  input: "^save/Assign_28"
  input: "^save/Assign_29"
  input: "^save/Assign_30"
  input: "^save/Assign_31"
  input: "^save/Assign_32"
  input: "^save/Assign_33"
  input: "^save/Assign_34"
  input: "^save/Assign_35"
  input: "^save/Assign_36"
  input: "^save/Assign_37"
  input: "^save/Assign_38"
  input: "^save/Assign_39"
  input: "^save/Assign_40"
  input: "^save/Assign_41"
  input: "^save/Assign_42"
  input: "^save/Assign_43"
  input: "^save/Assign_44"
  input: "^save/Assign_45"
  input: "^save/Assign_46"
  input: "^save/Assign_47"
  input: "^save/Assign_48"
  input: "^save/Assign_49"
  input: "^save/Assign_50"
}
node {
  name: "Merge/MergeSummary"
  op: "MergeSummary"
  input: "loss_1"
  attr {
    key: "N"
    value {
      i: 1
    }
  }
}
node {
  name: "init"
  op: "NoOp"
  input: "^Variable/Assign"
  input: "^Variable_1/Assign"
  input: "^Variable_2/Assign"
  input: "^Variable_3/Assign"
  input: "^Variable_4/Assign"
  input: "^Variable_5/Assign"
  input: "^Variable_6/Assign"
  input: "^Variable_7/Assign"
  input: "^Variable_8/Assign"
  input: "^Variable_9/Assign"
  input: "^Variable_10/Assign"
  input: "^Variable_11/Assign"
  input: "^dense/kernel/Assign"
  input: "^dense/bias/Assign"
  input: "^dense_1/kernel/Assign"
  input: "^dense_1/bias/Assign"
  input: "^train/beta1_power/Assign"
  input: "^train/beta2_power/Assign"
  input: "^Variable/Adam/Assign"
  input: "^Variable/Adam_1/Assign"
  input: "^Variable_1/Adam/Assign"
  input: "^Variable_1/Adam_1/Assign"
  input: "^Variable_2/Adam/Assign"
  input: "^Variable_2/Adam_1/Assign"
  input: "^Variable_3/Adam/Assign"
  input: "^Variable_3/Adam_1/Assign"
  input: "^Variable_4/Adam/Assign"
  input: "^Variable_4/Adam_1/Assign"
  input: "^Variable_5/Adam/Assign"
  input: "^Variable_5/Adam_1/Assign"
  input: "^Variable_6/Adam/Assign"
  input: "^Variable_6/Adam_1/Assign"
  input: "^Variable_7/Adam/Assign"
  input: "^Variable_7/Adam_1/Assign"
  input: "^Variable_8/Adam/Assign"
  input: "^Variable_8/Adam_1/Assign"
  input: "^Variable_9/Adam/Assign"
  input: "^Variable_9/Adam_1/Assign"
  input: "^Variable_10/Adam/Assign"
  input: "^Variable_10/Adam_1/Assign"
  input: "^Variable_11/Adam/Assign"
  input: "^Variable_11/Adam_1/Assign"
  input: "^dense/kernel/Adam/Assign"
  input: "^dense/kernel/Adam_1/Assign"
  input: "^dense/bias/Adam/Assign"
  input: "^dense/bias/Adam_1/Assign"
  input: "^dense_1/kernel/Adam/Assign"
  input: "^dense_1/kernel/Adam_1/Assign"
  input: "^dense_1/bias/Adam/Assign"
  input: "^dense_1/bias/Adam_1/Assign"
  input: "^global_step/Assign"
}
versions {
  producer: 26
}
